wakeword_models/voice_genie/voice_genie_v01.onnx (onnx, 205430 bytes, 9 tensors)

layer1.weight f4 [32, 1536]
0	0x3c006e08	0.0078387335
1	0xbc96d264	-0.018410869
2	0xbcc2d888	-0.02378489
3	0x3bd50a31	0.006501459
4	0x3c323e64	0.010879133
5	0xbac12f5a	-0.0014738843
6	0xbc2c22bf	-0.010506331
7	0xbc5117af	-0.012761994
8	0x3d313002	0.043258674
9	0xbccae9b4	-0.024769641
10	0xbc562a3d	-0.013071594
11	0xbca2ce3e	-0.019873735
12	0x3ca3bc08	0.019987121
13	0xbd23382c	-0.03984849
14	0xbbda4ad8	-0.006661754
15	0x3cdb3860	0.02676028
16	0xbcc2ce03	-0.023779875
17	0xbcae2782	-0.021259073
18	0x3cbed37f	0.023294209
19	0x3c91a6d2	0.017779741
20	0x3c8bed23	0.017080849
21	0xbc1b4740	-0.009477437
22	0xbd1512ce	-0.036394887
23	0xbbce0195	-0.0062868097
24	0xbc61ed87	-0.013789541
25	0x3c118fa5	0.008884345
26	0xbca416d3	-0.020030415
27	0x3cc69c48	0.024244443
28	0x3d45e335	0.048312385
29	0xbd62dcdc	-0.05538641
30	0x3acf970e	0.0015837864
31	0xbc643060	-0.013927549
32	0xbcd8248e	-0.026384618
33	0x3c31fb25	0.0108631
34	0x3d1f24e0	0.038853526
35	0xbc61de9a	-0.0137859825
36	0x3c2d4f77	0.010578028
37	0x3c7ea26a	0.015541652
38	0x3d1e2c59	0.038616512
39	0xbc186c86	-0.009303218
40	0xbca9ed2b	-0.020742973
41	0x3c994afd	0.018712515
42	0xbb2c1428	-0.0026257131
43	0xbd37c26d	-0.044863153
44	0xbc6613ec	-0.014042836
45	0xbc5fe753	-0.013665992
46	0x3c0bf5fd	0.008542535
47	0x3ce90f3c	0.028449647
48	0x3d034ce4	0.03205575
49	0xbcea096a	-0.028568942
50	0xbbea7604	-0.007155182
51	0x3ce6900b	0.028144857
52	0x3cc015f1	0.023447962
53	0xbd16bb66	-0.03679981
54	0x39eec093	0.00045538376
55	0x3c8632f1	0.016381713
56	0x3cc5f8bf	0.024166463
57	0xbb92dbd8	-0.004481774
58	0xbca24e27	-0.019812657
59	0x3ae7c5fe	0.0017682908
60	0x3b5c72ee	0.003363784
61	0x3ca6b796	0.020351212
62	0x3c6664af	0.014062091
63	0xbcf56257	-0.029954119
64	0x3baa9ae7	0.005206454
65	0xbcb0028c	-0.02148559
66	0xbcceaaaf	-0.025227873
67	0xbb7ec503	-0.0038874752
68	0xbb2158ad	-0.0024619505
69	0x3c0bc414	0.008530635
70	0xbbbb04dc	-0.0057073664
71	0xbc3384bb	-0.010956938
72	0x3c3fed38	0.011714272
73	0xbd3408fa	-0.043953873
74	0x3ca16f8a	0.019706506
75	0xbc90e4d8	-0.017687246
76	0x3c2ea6e8	0.010659911
77	0xbc7fffc3	-0.015624943
78	0xbca69105	-0.020332823
79	0x3c596e8f	0.013270988
80	0xbcbe7f02	-0.023253921
81	0x3b062b41	0.0020472559
82	0x3ad77204	0.0016437178
83	0x3c2125ea	0.0098357
84	0x3c8c74e4	0.017145582
85	0x3cadda29	0.021222191
86	0x3cd363e9	0.025804477
87	0xbca5e395	-0.020250121
88	0x3c734f45	0.014850442
89	0x3b906950	0.0044070855
90	0xbcb6f90a	-0.022335548
91	0xbc6c7a90	-0.014433518
92	0x3cbce2e6	0.023057412
93	0x3a937d8c	0.0011252626
94	0x3a60dcca	0.0008577822
95	0xbc95e431	-0.018297287
96	0xbc789057	-0.015171132
97	0xbc98173c	-0.018565767
98	0x3cd364cc	0.0258049
99	0x3c3f5630	0.011678264
100	0xbc7ae4b5	-0.015313317
101	0x3b63215d	0.0034657337
102	0x3ce34613	0.027743375
103	0xbb2e638b	-0.0026609625
104	0x3cb966b5	0.022631982
105	0x3c40595e	0.011740057
106	0xbc238b0c	-0.009981882
107	0x3c0e1a50	0.008673266
108	0x3c97b864	0.018520541
109	0xbc8e787f	-0.017391441
110	0x3c17dae9	0.009268501
111	0x3c9795de	0.01850408
112	0x3d3dab0c	0.0463057
113	0xbb55690b	-0.0032563831
114	0x3c8619be	0.016369697
115	0x3cb3790f	0.021908311
116	0xbc2fe5f0	-0.010735974
117	0x3c59d302	0.013294937
118	0x3c832c82	0.016012434
119	0xbc77429a	-0.015091563
120	0xbc915284	-0.017739542
121	0x3c7e56fb	0.015523667
122	0x3c3f86e3	0.011689874
123	0xbc779fcb	-0.015113781
124	0x3c4d0b7a	0.012514943
125	0x3c30f46c	0.010800462
126	0xbd0c66a1	-0.034277562
127	0xbc067dd0	-0.008208707
128	0x3cbae4bf	0.022814153
129	0xbb87ce4e	-0.0041444665
130	0xbc7c8a7c	-0.015413877
131	0xbd175ab0	-0.03695172
132	0xbca6f0e5	-0.02037854
133	0x3c3152df	0.010822981
134	0xbcaaaded	-0.020834887
135	0xbb38cae6	-0.0028197109
136	0x3c5c486c	0.013445001
137	0x3d21ad71	0.039472047
138	0x3c6a5583	0.014302614
139	0xbc821c8c	-0.015882753
140	0xbc897f0c	-0.016784213
141	0x3cb7e310	0.022447139
142	0x3cda25fa	0.026629437
143	0x3c4cee82	0.012508037
144	0xbb8ee145	-0.0043603503
145	0xbcde162f	-0.027110187
146	0xbc15c4c4	-0.009141151
147	0x3b439007	0.0029840486
148	0xbc2d116b	-0.010563235
149	0x3c321a3b	0.010870512
150	0xbcb297cd	-0.0218009
151	0xbb8e78cf	-0.0043478976
152	0xbaae2b46	-0.0013288043
153	0x3cf2c358	0.029634163
154	0xbbe8a579	-0.007099804
155	0xbaa5874a	-0.001262882
156	0xbbb30916	-0.0054637296
157	0x3c9b44ff	0.018953798
158	0xbc9ba0cd	-0.018997574
159	0x3ce12a7a	0.027486075
160	0x3a8d4f7b	0.0010781133
161	0x3b85cd27	0.004083294
162	0xbcda6f11	-0.026664289
163	0xbc0c5753	-0.008565742
164	0xbd53902b	-0.05165116
165	0x3ca60e23	0.020270413
166	0xbd00054d	-0.031255055
167	0xbca68871	-0.020328732
168	0x3bd011fa	0.006349799
169	0xbb419c3e	-0.002954259
170	0x3c91960a	0.01777174
171	0xbcd9309a	-0.026512433
172	0xbcca5fe3	-0.024703925
173	0xbce0c370	-0.027436942
174	0x3b3df89e	0.0028987299
175	0xbc106ba5	-0.008814727
176	0x3c13ad89	0.009013542
177	0xbc94da42	-0.01817048
178	0x3b6576e9	0.0035013503
179	0xbc4a0258	-0.01232966
180	0x3c79b427	0.015240706
181	0x3cf094bb	0.029367795
182	0xbd0fa219	-0.035066698
183	0x3bd31b5d	0.006442471
184	0x3c02077c	0.007936355
185	0xbb18b20d	-0.0023299486
186	0xbc5b3183	-0.013378504
187	0xbcc27df4	-0.0237417
188	0x3ce5f4ef	0.028070895
189	0x3c10f315	0.008847018
190	0x3bf15bc3	0.007365675
191	0x3c86f12a	0.016472418
192	0x3a0f4ce4	0.00054664747
193	0xbce358c1	-0.027752282
194	0xbbd07ade	-0.006362303
195	0x3d540bd9	0.05176911
196	0xbc59e779	-0.013299816
197	0xbbcd64d7	-0.0062681246
198	0x3c7cc5c7	0.015428013
199	0xbbb84849	-0.0056238514
200	0x3a6d5728	0.000905382
201	0xbb5e509c	-0.0033922559
202	0xbc1339ba	-0.008985931
203	0x3b24ee53	0.0025166466
204	0x3cc7436d	0.024324143
205	0x3cbc05ce	0.022951987
206	0x3c97976b	0.018504819
207	0x3c021ac5	0.007940953
208	0xbc8c940d	-0.01716044
209	0xbcbb4735	-0.022861103
210	0x3baa0e50	0.0051896945
211	0xbc761aaa	-0.015021006
212	0xbc56ad72	-0.013102876
213	0x3bcd49b2	0.0062648887
214	0x39d35b35	0.0004031301
215	0x3cc35a89	0.023846881
216	0xbc1aaa3e	-0.009440003
217	0x3d1d26b0	0.038366973
218	0x3c74deb5	0.014945676
219	0xbb69cec1	-0.0035676213
220	0xbbc20845	-0.005921396
221	0xb9d4ced6	-0.00040589896
222	0x3c94d056	0.018165749
223	0x3ca4d754	0.020122208
224	0x3a5a2377	0.0008321325
225	0x3c86fe41	0.01647866
226	0xbba149dc	-0.004922135
227	0xbc0988c1	-0.008394421
228	0x3c1f5804	0.009725574
229	0xbc82c841	-0.01596463
230	0xbce155bd	-0.027506704
231	0x3c685503	0.014180425
232	0xb92c509c	-0.00016433228
233	0xbc59eea1	-0.0133015225
234	0x3cd27819	0.025692033
235	0x3cad63c8	0.021165743
236	0x3be65e0b	0.0070302538
237	0xbaf5e944	-0.0018761535
238	0x3bc070dc	0.005872829
239	0xbc69a11f	-0.014259606
240	0xbc266f52	-0.010158377
241	0x3bbd4ea0	0.005777195
242	0xbc308797	-0.010774515
243	0x3bf4de75	0.007472808
244	0x3ca6f605	0.020380983
245	0x3cf64923	0.030064171
246	0xbc70b4c6	-0.014691537
247	0xba0be3d8	-0.00053363806
248	0xbbfa0889	-0.007630412
249	0x3cc3dbc7	0.023908509
250	0xbcace62c	-0.021105848
251	0x39f0e9b6	0.00045950495
252	0x3add7a61	0.0016897434
253	0x39687566	0.00022168978
254	0xbd798437	-0.060917106
255	0x3c0a46f2	0.008439766

layer1.bias f4 [32]
0	0x3c7345c5	0.014848177
1	0x3c22bd6c	0.009932857
2	0x3c6f3608	0.014600284
3	0x3bf3cd5f	0.0074402536
4	0x3cc8229e	0.02443057
5	0xbcada9ac	-0.02119907
6	0x3bef69ce	0.007306314
7	0xbc28bbe5	-0.010298704
8	0xbb910a2e	-0.0044262623
9	0x3ab8644d	0.0014067978
10	0xbd06bc9f	-0.032894727
11	0x3c9dfac3	0.019284612
12	0x3cf82abc	0.030293815
13	0x3c120195	0.00891151
14	0xbb434795	-0.0029797305
15	0x3c8176a6	0.015803646
16	0x3c210b6d	0.009829384
17	0x3b50abfc	0.0031840792
18	0x3c700541	0.01464969
19	0x3c3239c1	0.010878027
20	0x3c51ea47	0.012812204
21	0x3cc9ff05	0.024657736
22	0x3ca5a4b8	0.020220146
23	0xbcfb8ebd	-0.030707711
24	0x3bd0f233	0.0063765286
25	0xbc926093	-0.017868316
26	0xbcb7d908	-0.022442356
27	0x3bd1bbb2	0.006400549
28	0x3c568db5	0.013095309
29	0xbc91739b	-0.01775532
30	0x3cd00bf3	0.025396323
31	0xbbf8d160	-0.007593319

layernorm1.weight f4 [32]
0	0x3f7c3508	0.9851842
1	0x3f8bc3e1	1.0919152
2	0x3f75dc9a	0.96039736
3	0x3f7d92bf	0.9905204
4	0x3f756afc	0.9586637
5	0x3f8a4760	1.0803032
6	0x3f84da5c	1.0379138
7	0x3f790159	0.9726768
8	0x3f6ffb20	0.9374256
9	0x3f8698be	1.0515363
10	0x3f86a3fc	1.0518794
11	0x3f805939	1.0027229
12	0x3f80c8a8	1.0061235
13	0x3f7fb00d	0.9987801
14	0x3f82b3eb	1.0211157
15	0x3f8a6385	1.0811621
16	0x3f712273	0.9419319
17	0x3f86e4c3	1.0538563
18	0x3f8042e2	1.0020411
19	0x3f82c8d3	1.0217537
20	0x3f7696f3	0.9632408
21	0x3f7a8668	0.9786134
22	0x3f7e6a71	0.99381167
23	0x3f8dca96	1.1077449
24	0x3f61a01f	0.8813495
25	0x3f726194	0.9468014
26	0x3f7a45e7	0.9776291
27	0x3f7e582b	0.99353284
28	0x3f873aef	1.056486
29	0x3f6d5788	0.9271169
30	0x3f8c262e	1.0949152
31	0x3f725cdd	0.9467295

layernorm1.bias f4 [32]
0	0x3c208c96	0.009799143
1	0x3c8b2c1f	0.016988812
2	0xbd01b35d	-0.031665195
3	0x3c7e5205	0.015522485
4	0xbaacc069	-0.0013179901
5	0x3df36bf9	0.118858285
6	0x3cd761fe	0.026291844
7	0xbd124b50	-0.035716355
8	0x3b80b170	0.003927402
9	0xbc326cf1	-0.0108902315
10	0x3cf3fca8	0.029783562
11	0xbc842650	-0.01613155
12	0x3c8a8404	0.016908653
13	0x3ca9902a	0.020698626
14	0xbc7510a1	-0.014957578
15	0x3df77a6f	0.12083899
16	0x3c1ff0e9	0.009762027
17	0xbcd2de42	-0.025740746
18	0x3cad3667	0.021144105
19	0x3b852d01	0.004064203
20	0x3c8e3d52	0.017363224
21	0x3cdcff29	0.026977139
22	0x3d0aa79b	0.033851247
23	0xbc98c9f3	-0.018650984
24	0xbda9a3ae	-0.082831725
25	0xbd70bd57	-0.05877432
26	0xbca84aa0	-0.020543396
27	0x3ccaee6e	0.024771895
28	0x3cd1ab2a	0.025594313
29	0x3bcf437e	0.0063251844
30	0xbaf998f8	-0.0019042781
31	0xbd5c99eb	-0.053857725

blocks.0.fcn_layer.weight f4 [32, 32]
0	0xbd2277ce	-0.039665036
1	0x3dab5111	0.083650716
2	0x3e0323f1	0.1280668
3	0xbe16ea91	-0.14737917
4	0x3d06a1cf	0.032869156
5	0x3de0d92e	0.10978924
6	0xbe1dc7cb	-0.15408246
7	0x3e6d49b1	0.23172642
8	0xbdf7ba37	-0.120960645
9	0xbe548090	-0.20752168
10	0x3d29af50	0.041426957
11	0xbcf4bd58	-0.029875442
12	0xbd5757b9	-0.052573893
13	0xbdf5e1d1	-0.12005962
14	0x3d825954	0.06364694
15	0x3e08b83a	0.13351527
16	0xbe102763	-0.14077525
17	0x3dff090c	0.124528974
18	0xbbff4a7a	-0.0077908607
19	0x3cbdfd08	0.023191944
20	0xbdbb5f38	-0.09149021
21	0xbe0ec658	-0.1394285
22	0xba6c204f	-0.00090075
23	0x3e879a4a	0.264849
24	0x3e16d798	0.1473068
25	0x3de902a8	0.1137746
26	0x3def5670	0.116864085
27	0xbdcf3f25	-0.10119466
28	0x3e29b490	0.16572785
29	0x3dd16e40	0.10226107
30	0xbd195dc7	-0.03744295
31	0x3e0265f0	0.12734199
32	0xbdb36da0	-0.08761144
33	0xbe38caef	-0.18046163
34	0xbe09a8c1	-0.13443281
35	0xbd938ad9	-0.072042175
36	0xbe2bfe60	-0.16796255
37	0xbd2d1c6e	-0.04226344
38	0xbe0cbba1	-0.1374345
39	0x3dd70267	0.10498505
40	0x3ddb7f02	0.10717584
41	0xbe361c01	-0.1778412
42	0xbc3b5573	-0.011433947
43	0x3c54f2d3	0.012997347
44	0xbd94a64e	-0.072582826
45	0xbdc93572	-0.09824647
46	0x3df6282b	0.1201938
47	0x3d6c3105	0.057663936
48	0x3e226146	0.1585742
49	0xbc1a24e4	-0.0094082095
50	0xbc73d325	-0.014881884
51	0x3e4e8265	0.20166929
52	0xbe0a6c97	-0.13517986
53	0x3e09a50d	0.13441868
54	0xbe04cae4	-0.12968022
55	0x3d322aca	0.043497838
56	0xbdc90820	-0.09816003
57	0x3d720c9f	0.059094068
58	0xbcf51779	-0.02991842
59	0x3e3c1f1a	0.1837124
60	0x3e288894	0.1645835
61	0x3e01e61a	0.12685433
62	0xbdad9c0d	-0.0847703
63	0x3c6b62dd	0.014366833
64	0x3c751a42	0.014959874
65	0x3c76c8c3	0.015062514
66	0xbb9b63c1	-0.004742116
67	0xbdaacda0	-0.08340001
68	0x3d38385a	0.044975616
69	0x3e23c8d3	0.15994577
70	0xbdf826c7	-0.12116771
71	0x3e482900	0.1954689
72	0xbde77c2a	-0.11302979
73	0xbdaa2f4d	-0.08309803
74	0xbcda4686	-0.026644956
75	0xbd636ad0	-0.055521786
76	0xbe2e2b4c	-0.17008704
77	0xbc592e51	-0.013255672
78	0x3de53332	0.11191405
79	0x3db02a72	0.08601846
80	0xbd94e283	-0.07269766
81	0x3e6773fb	0.22602837
82	0x3c2ca6d5	0.010537823
83	0xbc6b4322	-0.014359267
84	0xbd1b311d	-0.037888635
85	0x3e49918a	0.19684425
86	0xbe15ff94	-0.14648277
87	0x3df7213e	0.12066887
88	0xbda781ec	-0.081790775
89	0xbdab8f39	-0.08376927
90	0xbd9ddf3f	-0.077085964
91	0xbc96e58d	-0.018420005
92	0x3dd5131f	0.10404038
93	0xbd077794	-0.033073023
94	0xbd534190	-0.051576197
95	0xbdc052fe	-0.093908295
96	0xbd83cf48	-0.0643602
97	0xbe3cb292	-0.18427494
98	0xbc6dd5ea	-0.014516333
99	0x3c93108c	0.017952226
100	0x3e0566f6	0.13027558
101	0x3d04b4b2	0.032398887
102	0xbe520bb3	-0.20512275
103	0x3d0a7193	0.03379972
104	0x3e046303	0.12928395
105	0x3c2da15e	0.010597555
106	0x3d965558	0.07340497
107	0xbe341d1e	-0.17589232
108	0xbdd9315c	-0.10605118
109	0xbe3938dc	-0.18088096
110	0x3dd96650	0.10615218
111	0xbe183c2b	-0.14866702
112	0x3d9f60af	0.07782113
113	0x3d3146af	0.0432803
114	0x3e1a238a	0.1505262
115	0x3d75bfa7	0.059997227
116	0x3ddd4313	0.10803809
117	0x3d8a3380	0.06748104
118	0x3de8315e	0.11337541
119	0x3e504eab	0.2034251
120	0xbdd54134	-0.10412827
121	0x3d9c2c44	0.076256305
122	0x3c0b7714	0.008512277
123	0xbd07980f	-0.033104
124	0xbbf2bf80	-0.0074080825
125	0x3b086111	0.002080981
126	0xbe1383f0	-0.14405799
127	0x3c1fa845	0.009744708
128	0x3db7a3dc	0.089668006
129	0xbd2bc39c	-0.041934595
130	0xbcae9f67	-0.021316243
131	0x3e136f26	0.14397869
132	0xbdbc7131	-0.09201277
133	0xbddee035	-0.10882608
134	0x3d0e4bba	0.034740187
135	0x3d97782c	0.07395968
136	0xbd10dced	-0.03536694
137	0xbc98cffc	-0.018653862
138	0xbe0147b4	-0.12625009
139	0x3d95f68c	0.07322416
140	0x3d942286	0.07233147
141	0xbdbda773	-0.09260454
142	0xbd88923e	-0.066685185
143	0xbe3af520	-0.1825757
144	0x3d96b172	0.07358064
145	0xbd2a1175	-0.041520555
146	0x3db69fd4	0.089172035
147	0x3dbbfe8f	0.091794126
148	0xbde2158e	-0.110392675
149	0x3d233436	0.039844714
150	0xbd716e0a	-0.058942832
151	0xbc983fb5	-0.018585065
152	0x3d5b17bf	0.053489443
153	0x3cd3b351	0.02584234
154	0x3dd09c9c	0.10186121
155	0xba460bfd	-0.0007554887
156	0x3d960e7a	0.0732698
157	0xbb469f12	-0.0030307216
158	0x3b3b67dc	0.002859584
159	0x3ca7768e	0.020442273
160	0xbd4aa9c0	-0.049478292
161	0x3c5ada13	0.013357657
162	0x3ccd9eb7	0.025100095
163	0x3e17aac5	0.14811237
164	0xbdeb5b13	-0.114919804
165	0x3d406dd8	0.046979755
166	0x3e4aa923	0.19791083
167	0xbd07b9c7	-0.033136155
168	0x3d165486	0.0367017
169	0x3e442f5e	0.19158694
170	0xbc109524	-0.00882462
171	0x3b0d135e	0.0021526436
172	0x3e026349	0.12733187
173	0x3dc74d3e	0.0973153
174	0xbdc0ee5f	-0.09420466
175	0x3d3056e3	0.04305161
176	0x3e1f96fd	0.15584941
177	0xbe52eae7	-0.2059742
178	0x3c29d76f	0.010366305
179	0x3e0065e4	0.12538868
180	0x3d311e7a	0.043241955
181	0x3b5b7200	0.0033484697
182	0x3e32de97	0.17467724
183	0x3cdf392a	0.027248938
184	0xbd797ac0	-0.06090808
185	0x3d23dc12	0.040004797
186	0xbdce4af6	-0.100728914
187	0xbd23a321	-0.039950494
188	0xbdf0c88e	-0.11757003
189	0x3df0671f	0.11738419
190	0x3d65a741	0.05606771
191	0xbd9394c4	-0.07206109
192	0xbb05dafb	-0.0020424712
193	0x3e88ad07	0.2669451
194	0xbde3f97d	-0.111315705
195	0x3e1f04b3	0.15529136
196	0x3db9085a	0.09034796
197	0xbddf210f	-0.10894977
198	0x3dbf28a1	0.09333921
199	0x3cde1121	0.027107777
200	0x3e097839	0.13424768
201	0x3dcdc45b	0.100472175
202	0xbd72a202	-0.059236534
203	0x3e36ed50	0.17863965
204	0xbd6edab1	-0.05831403
205	0x3db483e3	0.08814218
206	0xbd2f29e2	-0.042764552
207	0xbd4fb4c8	-0.050709516
208	0xbdbcf9ca	-0.09227331
209	0xbd5ae209	-0.05343822
210	0xbc849806	-0.016185772
211	0xbd401957	-0.046899166
212	0xbc27b97b	-0.010237093
213	0xbcc14916	-0.02359442
214	0xbcd37035	-0.02581034
215	0xbdbceaf9	-0.09224505
216	0xbc73a570	-0.014870986
217	0x3e01a3f9	0.12660207
218	0x3d95a654	0.07307115
219	0x3dde9a7a	0.10869308
220	0xbdae536e	-0.08512007
221	0x3c314634	0.01081996
222	0x3e781ba1	0.2422929
223	0x3d91b38b	0.07114323
224	0x3c8bf443	0.017084247
225	0xbc5999a5	-0.013281261
226	0x3e033059	0.12811412
227	0xbcc1887b	-0.02362465
228	0xbddb5b8c	-0.107108206
229	0x3db29b09	0.08720977
230	0x3dc36640	0.09540987
231	0x3db40ab9	0.08791108
232	0x3d0621c9	0.032747064
233	0x3aed88ee	0.0018122473
234	0xbd2e7907	-0.04259589
235	0xbdcad095	-0.09903065
236	0x3e2b9214	0.16754943
237	0x3b7918f2	0.0038009253
238	0x3b9051cf	0.0044042836
239	0xbdefd4be	-0.11710499
240	0xbdc046e6	-0.09388523
241	0xbc898400	-0.016786575
242	0x3df1301e	0.11776756
243	0xbd1cebcc	-0.03831081
244	0xbca416ca	-0.020030398
245	0x3e36fc9c	0.178698
246	0xbd8d2bf3	-0.06893148
247	0x3b458558	0.0030139294
248	0xbdae29a9	-0.0850404
249	0xbe0e3cec	-0.13890427
250	0x3da9fc1c	0.08300039
251	0x3e0aa20c	0.13538378
252	0xbbaecb3b	-0.0053342856
253	0xbdc70ad6	-0.09718864
254	0x3e003ef9	0.12524022
255	0x3b803bc3	0.003913374

blocks.0.fcn_layer.bias f4 [32]
0	0x3e3dfe5b	0.1855406
1	0xbe2cbc2c	-0.16868657
2	0x3dbfd951	0.09367622
3	0xbd81c3c0	-0.063361645
4	0x3d3438e6	0.043999575
5	0x3d3b62ab	0.045748394
6	0xbd1d396d	-0.038384844
7	0x3c062e7a	0.008189792
8	0x3e04bbce	0.12962267
9	0xbc8963fa	-0.016771305
10	0xbd094502	-0.033513077
11	0xbdcc555c	-0.099772185
12	0x3e230847	0.15921126
13	0xbbdf9cde	-0.00682412
14	0xbe042e83	-0.12908368
15	0xbc1248d2	-0.0089284945
16	0x3be7dc9e	0.00707586
17	0x3da1c970	0.07899749
18	0xbdaa787c	-0.08323762
19	0xbe11ea02	-0.14249423
20	0x3dfa6a03	0.122272514
21	0x3e136b34	0.14396363
22	0xbc314670	-0.010820016
23	0xbd54dbd4	-0.051967457
24	0xbc8c3754	-0.017116226
25	0x3d411167	0.047135737
26	0x3e1a2797	0.15054165
27	0xbdd1f278	-0.10251325
28	0x3e187455	0.14888127
29	0x3aea2544	0.0017863889
30	0xbdc9a90f	-0.098466985
31	0x3ddde65e	0.10834955

blocks.0.layer_norm.weight f4 [32]
0	0x3f9b47a8	1.2131243
1	0x3f95776f	1.1677073
2	0x3f987544	1.1910787
3	0x3f9adae8	1.2098055
4	0x3f75ff77	0.96092933
5	0x3fa56e9e	1.2924383
6	0x3fafeb84	1.3743749
7	0x3f78c5d2	0.9717685
8	0x3f8ef055	1.1167094
9	0x3f7f4cd8	0.9972663
10	0x3f9214f6	1.1412647
11	0x3f9c51a8	1.221242
12	0x3f8e23fc	1.1104732
13	0x3fa2daa3	1.2722973
14	0x3fabf061	1.3432733
15	0x3f81e7bd	1.0148846
16	0x3f9a4952	1.2053626
17	0x3f8bb6d5	1.0915171
18	0x3f9d013a	1.2265999
19	0x3f9cd304	1.2251897
20	0x3fa58515	1.2931238
21	0x3f93d1c9	1.1548396
22	0x3f957b96	1.167834
23	0x3fa018cd	1.2507569
24	0x3fa74d21	1.3070413
25	0x3f9c0827	1.2189988
26	0x3f96847a	1.1759179
27	0x3f94d1bb	1.1626505
28	0x3fab80c7	1.3398675
29	0x3fadc007	1.3574227
30	0x3f9234f0	1.1422405
31	0x3f8efd10	1.1170979

blocks.0.layer_norm.bias f4 [32]
0	0x3dea9660	0.11454463
1	0x3e0adf50	0.1356175
2	0x3dccfd6e	0.100092754
3	0x3d77d439	0.060505126
4	0xbd2364f0	-0.039891183
5	0x3e8907d8	0.26763797
6	0x3e854708	0.26030755
7	0xbc534fca	-0.012897441
8	0x3d90c9f2	0.07069768
9	0xbd4f1b1c	-0.050562963
10	0x3de7e5b0	0.11323106
11	0x3da49c9b	0.080376826
12	0x3dd49901	0.10380746
13	0x3e7affa5	0.24511583
14	0x3e896d4d	0.26841202
15	0x3bfebb36	0.007773782
16	0x3da93f6c	0.0826405
17	0xbd7c80f1	-0.061646406
18	0x3e0236dc	0.1271624
19	0x3e10edfb	0.14153282
20	0x3e86bc4b	0.2631553
21	0x3d051bf5	0.032497365
22	0x3dbf5dba	0.09344049
23	0x3df9ec2e	0.12203251
24	0x3e8864b2	0.26639324
25	0x3dc15a53	0.09441056
26	0x3e2ce234	0.16883165
27	0x3e2755c1	0.16341306
28	0x3e8411df	0.25794885
29	0x3e878f07	0.2647631
30	0x3d647e4a	0.0557845
31	0x3de95e78	0.113949716

last_layer.weight f4 [1, 32]
0	0x3ebb879d	0.36626902
1	0x3e883dc7	0.26609632
2	0x3e57de65	0.2108093
3	0x3e9b9e43	0.30394182
4	0xbd9e9c0f	-0.077446096
5	0xbeb5a102	-0.35474402
6	0xbed73094	-0.4202925
7	0x3d88f8b2	0.0668806
8	0x3e29def4	0.16588956
9	0xbc9ecdfd	-0.019385332
10	0x3e629e0e	0.22130606
11	0x3eabfaa8	0.33589673
12	0xbe7236b0	-0.23653674
13	0xbebb90a2	-0.36633784
14	0xbef0b610	-0.47013903
15	0x3d475cc2	0.048672445
16	0x3e8211ff	0.25404355
17	0x3e709ddb	0.23497717
18	0x3eac14ea	0.33609706
19	0x3e8ad725	0.27117267
20	0xbe9b0569	-0.30277565
21	0x3e696287	0.22791491
22	0x3e8b21aa	0.2717412
23	0x3e67989a	0.22616807
24	0xbeb042ee	-0.34426063
25	0x3ea7905d	0.32727328
26	0x3e890641	0.26762584
27	0x3e6ee710	0.23330331
28	0xbee60b71	-0.44930604
29	0xbeba7cd0	-0.3642335
30	0x3e361ccf	0.17784427
31	0x3df45a24	0.119312555
