openwakeword/resources/models/alexa_v0.1.onnx (onnx, 854246 bytes, 5 tensors)

1.weight f4 [128, 1536]
00000000: 21a3 00bd d2c7 17ba 4df8 7ebc ad14 7ebb
00000010: 5018 5dbc c901 923c a141 9b3c 0d5a 5f3b
00000020: 3289 553d 11bc af3c 45b9 aa3c 3971 103d
00000030: 5d47 09bb a665 963c e4d9 48bc feef 123b
00000040: 59d9 35bd 93da b3bc 3354 28bb 0fcb a43b
00000050: b72b a7bc 9a0c 543c cc64 7bbc 229f ed3c
00000060: 93b4 4d3c 0b37 cebc 5394 9cbc 3504 75bc
00000070: 15c5 853c 1f38 0dbd dce0 053c 1c1f c8bc
00000080: 2a95 933b 0390 eebc b61a b1ba ba6e 113a
00000090: 67ff cabc 2543 69bc 739e b9bc 84e8 8d3c
000000a0: 5f78 673c 3364 b93b 7e25 a83a c5cd bb3c
000000b0: 9749 e63c da92 4e3b 870d 8cbc 8bf4 903d
000000c0: db48 153c b0e2 073c 7d1c 283c 2503 8bb9
000000d0: 6c8f 82bc 15f8 eb3c 100d 923c 866b 11bd
000000e0: e106 563b b0d1 e0bc fa01 9b3c c8ef 783c
000000f0: ef60 75bb e5ec c43c 8454 adbc 04d1 70bc
00000100: 83d2 04bd 7fec 773c a8e7 43bd 7066 5d3b
00000110: 1019 f2bc dc14 dfbc d893 833d 16c7 b5bb
00000120: 05df cfbb d5fa c2bc a2a7 953b 2f5a 3e3d
00000130: 0e10 22bc e34e 94bd b1f7 44bc c8b9 003d
00000140: 9b6e 693c f49f 153c 3458 e93b 9785 27ba
00000150: b3ae e4bc 2729 e63c 226a babc f2c1 d8bc
00000160: 7283 00bd 64c4 bebb 4c1b 30bd 6857 503a
00000170: 3174 033c fdac 99bb c147 a1bc df42 5dbc
00000180: 7850 53bc 7bbc 91bc 279b 8aba 2408 ac3b
00000190: f4da 54bb 7952 e9bb 47d0 173c aabd fa3c
000001a0: 2c43 1c3d 3be4 d0bc f92b 103d c67b 81bb
000001b0: 68b2 db3a 42c9 de3c ab93 8cbd 2017 1d3d
000001c0: 8f2c b63b 2b2b 1fbd aa11 f13c 99aa f93b
000001d0: 75ec b73b e2c2 3e3b 780e d4bc a0c8 25ba
000001e0: af38 013d 0157 b2b9 aaa2 943c f820 103d
000001f0: 9252 8a3c 4b14 37bb 28d1 c9bc a0e6 9bbc
00000200: 785f 86bc 8c32 39bd 7b09 5f3c 9144 c53c
00000210: a021 bc3b 9220 943c 62a9 2b3c 83e5 493c
00000220: 9a0a 7b3c 7e6f dcbc 368d c13b 55f0 cf3c
00000230: f236 203c a47d 253c 7753 a6bc 8cb1 9b3d
00000240: dcef 6a3c 34d1 043d e9eb 5d3b 9d1f a5bc
00000250: 3b56 bfbc 6974 c7bc 8c3d 263d 2ea7 61bb
00000260: 3c40 233d efc5 663b cca4 1e3c 21c0 983b
00000270: 8238 443c 8aed fe3b 3079 c6bc 8161 e93c
00000280: f5cf c23b ee53 f4bb d895 49bd aba2 10bb
00000290: c286 123d a68e 62bd 61dd 233d 09d0 b9bb
000002a0: 9d5f aa3c 81bc 813b 2544 c8bc db55 d43b
000002b0: 8534 3fbc b50b 8abd 8d12 443c 166e 89bc
000002c0: 2081 0b3d 77f0 a03c 9621 1d3c c3f7 e93c
000002d0: c484 15bc 6d7f 7c3c 6c06 3a3d 5118 a0bc
000002e0: dc21 d9bc 274b 803b c914 41bc 74b3 0abd
000002f0: 8537 093c 06e7 fe3c 973f 28bc 3e6c bcbb
00000300: dd63 8fbc 53bc 03bd bee9 b73c 76eb acbc
00000310: c867 bcbc c79b 0abc 4c27 9f3b f01f 393c
00000320: 0ac7 0b3d 5dfd 2abc 871c bc3a 3e41 b2bc
00000330: 7148 cb3c 00b2 63bc 3549 6abd c0be 1c3d
00000340: c039 903c 4d58 a93c 759b c6bc 2657 4a3b
00000350: 2012 3f3d fae9 a23c 8b94 4abd 9d15 563d
00000360: e80b 183b f38c 4f3c b1eb f13c 89c9 5d3d
00000370: 9f2d 743c e83a 54bc ad7b 98ba b068 73bc
00000380: 5eee 123b c150 12bd e3e6 86bc ed8d c13c
00000390: 0975 39bc f0a3 df3b b592 393c aeb1 34bc
000003a0: 7e83 41ba 6c22 4d3c 9a20 8abc f62d 473c
000003b0: 221e e9bc 3131 023d 7f9a aabc e5fb 0a3d
000003c0: 1824 963c 384d eb3c 4074 d53c 3444 1ebc
000003d0: e376 dabc a8f1 ffb9 37a7 32bb 5188 e7bb
000003e0: c24b b73c c508 313b 3244 93bb aa66 c23c
000003f0: fe6f 773c 53ba e9ba 56d7 843c 101d b9bc
-0.03140557 -0.00057899684 -0.015562129 -0.0038769648 -0.013494566 0.017823117 0.018952193 0.0034080774
0.052132793 0.021451982 0.020840297 0.035264228 -0.0020947077 0.018359017 -0.01225898 0.0022420879
-0.044396732 -0.02195481 -0.0025684952 0.0050290893 -0.020406587 0.012942458 -0.015343856 0.029006545
0.012555259 -0.02517273 -0.019113695 -0.014954616 0.016329328 -0.03447735 0.008171286 -0.024428897
0.0045038657 -0.029121405 -0.0013511989 0.00055478106 -0.024779988 -0.0142372 -0.022658562 0.017322786
0.01412782 0.0056576966 0.0012828556 0.022925267 0.028111262 0.0031520636 -0.017096294 0.07077893
0.009111608 0.008293793 0.010260698 -0.0002651449 -0.01593753 0.028804818 0.017828494 -0.035502933
0.0032657909 -0.027443737 0.018921841 0.015193887 -0.003744181 0.024038741 -0.021158464 -0.014698271
-0.032427322 0.015132069 -0.047828346 0.0033782981 -0.029552966 -0.027231626 0.06424683 -0.0055474145
-0.0063437247 -0.023801247 0.0045671025 0.046472725 -0.009891523 -0.07241609 -0.012021945 0.031427175
0.014247562 0.009132374 0.0071211103 -0.0006390451 -0.027915334 0.028095795 -0.022755686 -0.026459668
-0.031375356 -0.0058217514 -0.042994782 0.0007947595 0.008023308 -0.0046898113 -0.019687535 -0.013504713
-0.012897603 -0.01779007 -0.0010574803 0.005249994 -0.003247914 -0.007120427 0.009265966 0.030608017
0.038149998 -0.025499454 0.035198186 -0.0039515225 0.0016761543 0.027195577 -0.06864103 0.03835213
0.005559511 -0.038859528 0.029427368 0.007619214 0.0056129047 0.0029107858 -0.025885805 -0.0006324146
0.0315482 -0.0003401563 0.01814397 0.03518769 0.016885076 -0.002793568 -0.024635866 -0.019030869
-0.016402945 -0.04521422 0.0136131 0.024080547 0.005741313 0.018081937 0.010477396 0.012322786
0.015322352 -0.026908632 0.0059067262 0.025383154 0.009778725 0.010100756 -0.020303471 0.07602224
0.0143394135 0.032426074 0.0033862537 -0.020156676 -0.023356548 -0.0243475 0.04058604 -0.0034431922
0.03985618 0.0035213192 0.009682845 0.0046615754 0.011976363 0.0077797817 -0.024227709 0.028488876
0.0059452006 -0.0074562943 -0.049215168 -0.0022069614 0.035773046 -0.05531182 0.040006045 -0.0056705517
0.020797545 0.003959239 -0.024446556 0.0064799613 -0.0116702365 -0.06740514 0.0119673135 -0.016776126
0.03405869 0.019645913 0.009590527 0.028560525 -0.009125892 0.01541124 0.04541628 -0.019542845
-0.026505403 0.003915209 -0.011784741 -0.033862546 0.008375053 0.03111602 -0.010269067 -0.005750208
-0.017503673 -0.03216202 0.022450324 -0.02110837 -0.022998706 -0.008459992 0.0048569795 0.011299118
0.034125365 -0.010436383 0.0014351764 -0.021759626 0.024814816 -0.013897419 -0.057198722 0.03826785
0.017605662 0.020671988 -0.02424405 0.0030874698 0.046648145 0.01988696 -0.049458068 0.052266706
0.0023200456 0.012667882 0.029531332 0.054147277 0.014903455 -0.0129534975 -0.0011633538 -0.014856502
0.002241991 -0.035721544 -0.016467517 0.023627246 -0.011319407 0.006824963 0.011326482 -0.01102869
-0.00073819596 0.012520414 -0.016861249 0.012156954 -0.028456751 0.031785194 -0.020825623 0.03393163
0.018327758 0.028723344 0.026056409 -0.009659816 -0.026668018 -0.00048817438 -0.0027260312 -0.0070658107
0.022374991 0.0027013284 -0.0044942135 0.023730595 0.015102385 -0.0017832018 0.016215961 -0.022596866

1.bias f4 [128]
00000000: 40cc 1b3c 67ab f8bc 0081 fa39 1f8a bebc
00000010: 90db a83c 97d1 b2bb 57a0 fb3b e07a 61bb
00000020: a80a 6bbc 7574 78bc 51b0 c8bb 548c b73c
00000030: b22c 06bc b7ec d53c 5475 c3bc 1d30 d8bb
00000040: 21a2 1b3c f4c6 3bbc af02 36bc 07c4 3abb
00000050: 5262 d6bb 3c7a a93c 4634 0e3a bb61 b4bc
00000060: ff37 b93c 0ade 99bc ed9a 263c 952c 2cbb
00000070: 5a02 59bc 3b44 6cbc dbf8 67bb 0b64 d5bb
00000080: d923 133d 0ab0 9bbc 1e1f 89bb 7ae1 88bc
00000090: 9eb4 f83b 5c17 efbb da26 bdbc 3615 963c
000000a0: cbfc 0cbb 1fd9 983c 3923 9dbc 2dc6 9c3c
000000b0: 9b67 e1bb ef8f 133c ebea 843c 57e5 b8bc
000000c0: f76f 923c f8bb c9bc 88db babc 79da 303c
000000d0: 7dcb 343c 940e 45bc e307 d33c 8480 853c
000000e0: b7ce 0bbc 1f5e 88bc b52c 413b e163 9a3c
000000f0: 39a8 4037 4c40 793c 9bcf 073a bb9c a63c
00000100: cb9e 983c fa2d 8e3c b9ac 2dbc f558 95bc
00000110: e380 9ebc 017f b8bc 22ff 9dbc 157d aebb
00000120: e038 70bb 7271 1d3a 1556 613a 23cc c93b
00000130: c862 e2ba e2ab 853c f719 c63c 603d b73c
00000140: 6cc5 c0bc 744a 0f3c 2643 42bb adec 5bbb
00000150: 96c7 363c 8105 4e3b 398a 0fbc 2472 9cbb
00000160: b021 29bc 89db eebb 91d1 a33c 494a 6e3c
00000170: 1b0c b6bc 2887 6f3c f8df a4bb ebb7 6dbc
00000180: fea1 cfbc e50d a1bc fdb1 1c3c 7291 f13c
00000190: 42ce ad3c 70ac e83b 6c25 aebc c24e 5fb9
000001a0: e7d2 e23b 7165 ccbc b7fb 943c d9e8 753c
000001b0: 5f12 81bc 6b4c bdbb c597 103c 03e5 463b
000001c0: c92c 3fbc 7184 64bb d0e5 463b 3678 4e3b
000001d0: ae60 a2bc 280a d3bc 554f 413b 538c 003b
000001e0: 3241 b33c 92eb 203c 0e91 41bc 207e 7dba
000001f0: 2026 cdbc d52a d9bb 7a56 3e3c f1f8 08bc
0.009509146 -0.030355169 0.00047779828 -0.02325922 0.020612508 -0.005457114 0.007679026 -0.0034405515
-0.014345802 -0.015164484 -0.006124534 0.02240578 -0.008189367 0.026113851 -0.023859657 -0.0065975324
0.009499104 -0.011461008 -0.011109038 -0.002849819 -0.0065424824 0.020688169 0.00054246595 -0.022019258
0.022609709 -0.018782634 0.010168773 -0.002627169 -0.01324519 -0.014420564 -0.0035396132 -0.00651217
0.03592286 -0.01900484 -0.0041846177 -0.016709078 0.0075898906 -0.007296486 -0.023089815 0.018320661
-0.002151298 0.018658219 -0.019181835 0.019137466 -0.006878806 0.009006484 0.016225299 -0.022570295
0.017875655 -0.024625763 -0.022809759 0.010794275 0.0110348435 -0.0120274015 0.025760597 0.016296633
-0.008533171 -0.016646443 0.002947611 0.018846454 1.1483259e-05 0.0152130835 0.0005180777 0.020338407
0.018630406 0.017355908 -0.010600262 -0.018230895 -0.019348567 -0.022521498 -0.019286696 -0.0053249695
-0.0036654994 0.00060059794 0.0008595896 0.006158368 -0.0017271871 0.016317312 0.024182303 0.022368133
-0.023531638 0.008745778 -0.0029642074 -0.0033557818 0.011155983 0.0031436386 -0.008760982 -0.004774349
-0.010322973 -0.007289354 0.01999739 0.014544078 -0.02222257 0.014619626 -0.005031582 -0.0145091815
-0.025345799 -0.019659946 0.00956392 0.029488299 0.021216515 0.0071006343 -0.021258079 -0.00021296277
0.006922114 -0.024950715 0.018186433 0.0150091285 -0.01575583 -0.005776932 0.008825247 0.0030348904
-0.011668392 -0.003486898 0.0030349381 0.0031504757 -0.019821491 -0.025761679 0.0029496748 0.001961489
0.021881673 0.009821789 -0.011814369 -0.0009669978 -0.025042593 -0.0066274204 0.011617297 -0.0083601335

3.weight f4 [128, 128]
00000000: 1a54 f23c d381 c63b bd93 aabb f4ec 1cbd
00000010: 2b9e 7ebd 979d ab3d 7f4a 29bc 64e0 403d
00000020: 2e2f 533d 38bf 34bd 23c1 69bd f013 283d
00000030: 9a11 d2bd 6c43 07bd 8460 a9bd 9fe4 8f3d
00000040: e528 603c 4f8d fcbc 7e50 45bd 56dc e3bc
00000050: 41b9 4ebd de84 073d 3732 103d 0039 37bd
00000060: a29c 68bd 7405 c7bd e8ab 7bbd e4e0 603b
00000070: 9cdc 54bd 1bc8 2ebc d823 f2bc 71f8 913d
00000080: c532 dcbd 566f 8a3d 4449 5bbc f19b 95bc
00000090: 7414 80bd 0c45 673d c2c5 8abd eb18 6f3d
000000a0: 168a 91bd 4fc2 033d 6cfb c4bd 9232 abbc
000000b0: 52c0 afbd af94 5e3d 92cd 963d a9b1 4c3b
000000c0: 8c88 b1bd 416a 65bd b988 03bc d2b2 82bd
000000d0: 2aed d63b b161 c83c 653b 003c a1bd 97bd
000000e0: 79b7 a8bc a13e 11bc 004a 163c b052 98bd
000000f0: 0714 9cbd c963 78bc 6a99 20bc a1bb edbc
00000100: 892f 9dbd 0444 6dbc 09bb 0e3d 34af 3c3c
00000110: 55cf e13c 6cc7 023d 58e6 433c fc19 9bbd
00000120: 9c9b 803d 2597 32bd af55 4e3d a152 d63c
00000130: 3f6a b9bd 62b5 82bc fa5e 97bd 351e 983b
00000140: 31cc 343d d000 183d 2ef1 1abd d48c 653d
00000150: 75c6 863d 01c9 56bd 800b 443d 401b 1fbd
00000160: 0284 af3d e427 463c ebf8 c1bd 0975 fd3c
00000170: 2a54 983b 3c5e a6bd 7e5d 5bbd fc57 fe3c
00000180: 7921 423d bc05 81bd cac9 633d e09d 823c
00000190: fd9f 263d bc87 8e3d 8950 16bd f8b3 5f3d
000001a0: 97ac aa3d bf1e 4bbd 253e 663d 3bbc a9bd
000001b0: 66c2 1c3d 5fde 123a 9cf2 1ebd f505 b63d
000001c0: 6535 813c 20af 25bd e2d6 63bd c9f4 7abd
000001d0: 5b59 913d 0004 1abc 5f4e 803d 34f4 923d
000001e0: 1d47 0ebe e093 ab3d 4c21 7f3c 64de 1cbb
000001f0: 9a88 5abd 2b07 d7bd 69c5 e03b 5aaf afbc
00000200: d11c 023d 69a9 9b3d 4bcc f1bc 2cd5 a8bd
00000210: 5e72 9d3c 3594 8b3d 1d64 e73c 3b68 22bd
00000220: 89d4 4fbc 18ac 0dbd 5f55 ab3d 5eeb e9ba
00000230: 35d3 433d b64c 563c 4bb2 6bbb 2289 923d
00000240: 089f 33bd 8285 343d ed83 23bc b25e a8bc
00000250: f0fa f83b 5a0f c73d 7085 74bb 7c11 f5bc
00000260: cf72 e4bc e6ed a7bd fa8b 18bc d9fd 4dbc
00000270: 5ce4 223d 9ea4 cc3c 0eba 3bbd 1d77 04bc
00000280: e4b9 c6bd d9e2 d33c 314f d0bb 4d86 9dbd
00000290: 2e47 22bc 1aff 9fbd 66ab 10bd d32c d83c
000002a0: 1e12 1c3c ce72 03bc 67f0 3ebc 70d7 9cbc
000002b0: e34c 4abc 41e1 193c a481 0d3c e015 853c
000002c0: 2064 b6bc 7e10 313d e578 b1bd c674 48bd
000002d0: acbf b2bd c85e 96bd a082 a43d d326 283c
000002e0: a8fe e0bd 4430 b73d 9191 9ebc b858 2abd
000002f0: 4307 a0bd 1356 883d 756b bbbc 54cb a6bd
00000300: 8058 573d 4d78 363d d408 723c 2af0 31bc
00000310: 194d 09bb 4f00 9f3c ea7b 4fbc 8633 8e3d
00000320: e475 7dbd ce12 913c 68b7 5ebd a186 bebb
00000330: 1f0f ae3b 00a4 72bc e154 0d3d 8ac1 193d
00000340: ec4c cbbc 1e94 76bc 6440 96bc d0d1 8bb9
00000350: d8be abbd 5702 4f3d b564 553d 2647 3bbb
00000360: 1bf3 973d 4948 883d 0b15 f2bc c2d2 99bd
00000370: 09ec 1bbd 09dd 68bd 7183 ed3d 3a2c bfbd
00000380: 9cdf 2e3d a363 9cbd 24c0 2d3d d205 fbbc
00000390: 6263 babc e6b5 69bd b315 9cbd 6f2d 6cbc
000003a0: 9a05 2bbd 8d3f 733d 7484 383c 864c 7a3d
000003b0: 2dac 963d b726 4a3d c14d d9bc a869 00bb
000003c0: acc1 89bd 249e 403d 76b2 e7bc 0958 1dbd
000003d0: 2a3e 17bd 8bb0 ca3c 1758 dabd 0849 8f3d
000003e0: f9bf 91bc 6396 c9bd b460 6e3d 0d4b 39bd
000003f0: b64f f1bc de57 183d 55a7 123d 6601 623d
0.029581118 0.0060579567 -0.0052056 -0.038311914 -0.06216256 0.08379667 -0.010332703 0.047088996
0.051558666 -0.044127673 -0.057068955 0.04103464 -0.102572635 -0.033023283 -0.08270362 0.07026028
0.013681625 -0.0308291 -0.048172466 -0.027815025 -0.05046964 0.033085696 0.03520414 -0.044732094
-0.05679 -0.09717837 -0.06144324 0.0034313733 -0.051968202 -0.010667826 -0.029558107 0.071274646
-0.10751871 0.06759517 -0.013384167 -0.018262835 -0.06253901 0.056462333 -0.067760006 0.058373373
-0.07106416 0.03216773 -0.096182674 -0.020898137 -0.08581604 0.054341014 0.07363428 0.0031233823
-0.086686224 -0.056009535 -0.008028203 -0.063817635 0.006559034 0.024460645 0.007826661 -0.07409216
-0.0205953 -0.00886503 0.009172916 -0.074376464 -0.076210074 -0.015160509 -0.009802202 -0.029020132
-0.07675082 -0.014481548 0.03484634 0.011516381 0.027564684 0.031928465 0.011956774 -0.075733155
0.0627968 -0.043601174 0.050374683 0.026162447 -0.09053468 -0.01595563 -0.07391162 0.004642273
0.044140045 0.03711015 -0.037827663 0.056042507 0.065808214 -0.052437786 0.04786253 -0.038844347
0.085701 0.012094472 -0.094713055 0.030939596 0.004648705 -0.081234425 -0.053555958 0.031047814
0.047395203 -0.06299922 0.055612363 0.015944421 0.04067992 0.06959483 -0.036697898 0.05461499
0.083337 -0.04958987 0.05621161 -0.08287855 0.03827133 0.0005602594 -0.03880559 0.08887855
0.01577253 -0.040450215 -0.05562485 -0.0612686 0.07097121 -0.009400368 0.06264948 0.07175484
-0.13894315 0.08377814 0.015571903 -0.0023936266 -0.05335293 -0.10499414 0.0068594706 -0.021445919
0.031765763 0.07600672 -0.02951636 -0.08243784 0.019219574 0.068153776 0.02824598 -0.039650183
-0.01268495 -0.03458795 0.083658926 -0.0017846634 0.047808845 0.013079813 -0.0035964425 0.07155062
-0.043852836 0.044072635 -0.009980184 -0.020552967 0.0075982735 0.09719725 -0.003731098 -0.029915564
-0.027886776 -0.081996724 -0.009310717 -0.012572729 0.03976856 0.02498084 -0.045831732 -0.008085039
-0.097034246 0.025865005 -0.0063570966 -0.076916315 -0.009904666 -0.07812329 -0.03531971 0.026388561
0.009525804 -0.008022977 -0.011653996 -0.019145697 -0.012347433 0.009392084 0.008636866 0.016245782
-0.02226454 0.04322862 -0.08665637 -0.04893949 -0.08727965 -0.07342297 0.08032727 0.010263163
-0.10986072 0.08944753 -0.01935652 -0.041588515 -0.07813885 0.06657042 -0.022878388 -0.081442505
0.052574635 0.04454832 0.014772613 -0.010860482 -0.0020950495 0.019409327 -0.012663821 0.06943421
-0.061880007 0.017709162 -0.05437413 -0.005814389 0.005311861 -0.014809608 0.034504775 0.03753809
-0.024816953 -0.015049962 -0.01834125 -0.00026668468 -0.0838601 0.05053934 0.052097995 -0.0028576343
0.074194156 0.06654412 -0.02955105 -0.07510902 -0.038066898 -0.05685142 0.11597336 -0.093346074
0.04269372 -0.07636192 0.042419568 -0.030642424 -0.022752468 -0.057058237 -0.07621326 -0.014415129
-0.04175339 0.05938678 0.011262048 0.061108135 0.07357059 0.049353328 -0.026526334 -0.0019594226
-0.06726393 0.047025815 -0.028283339 -0.038414035 -0.03692452 0.024742385 -0.10661333 0.069963515
-0.017791735 -0.09843137 0.058197692 -0.04523759 -0.029456954 0.03719317 0.03580411 0.055177115

3.bias f4 [128]
00000000: f5fa 61bd 5d53 813d 4c57 debc 10cf 28bc
00000010: 69f6 f93c b61f d8bd 1210 4d3d 9fdc 08bd
00000020: 33d2 e1bc 71cf b73c 0161 b83c 8571 96bc
00000030: 2a2b 013c 3a9c 133d 783d 823d 2f4d 3b3d
00000040: 2e10 873c f332 d1bd 94aa ddbd 9b19 0fbd
00000050: 1af2 9b3d 289e 48bd e55d 873c c19b bf3c
00000060: 7e8f cc3c 881e 98bd 15f4 d3bd c6ed b7bd
00000070: 0b9d 9abd cefc cdbd a4cb 78bd b399 43bc
00000080: 5735 403d af6a 0cbd 912c 7b3d 41a2 cf3c
00000090: 37fd 2f3d 4e9e 39bb dafc 733d 374b f23c
000000a0: 8fa3 4d3d 052f 5fbd 54ff b8bd 7579 95bd
000000b0: 4969 b3bd 9df1 71bd 5e72 cc3c 745a 1fbd
000000c0: 655b 6e3d f0ac 3bbd 9a37 8bba 15f2 aabd
000000d0: 6d12 92bd 752c 473c 16ab 87bb 86da 05bd
000000e0: fa44 0f3c 0973 8fbd 1a11 cabd b0da f53c
000000f0: 2a7d b5bd e990 f83c 5758 6a3d 05c4 cabd
00000100: 0c19 29bd 5d1e 5f3b c158 34bc 56f8 28bd
00000110: b4ae d7bc bebe aa3d 534e 583d a8db 88bd
00000120: 629f e3bc b4df fbbc 0fa4 493c 6e75 85bd
00000130: d6c6 babb 9e7e 23bd f043 46bc f7bc 333c
00000140: a140 1f3d de41 88bd 8852 63bc d946 6ebc
00000150: 78e8 a83d 2a04 0f3d 7138 79bd 665a 8dbd
00000160: 548e 453c a6ab 813d 6419 983c e91e 803b
00000170: f3cc 2dbb d0fe a03d 2841 b43b d0f2 9fbc
00000180: ff6b 0b3d 5bb6 6dbd a622 333d 9ca0 c13d
00000190: d20a 79bd 7642 853d ce8d 5cbd 3443 97bc
000001a0: b7d0 93bc c1ed 95bd 4a6c 8fbd 014f 76bc
000001b0: 96f5 b639 eb84 0a3c d06d a13c 47af c0bd
000001c0: f63b 563d afb0 8b3b 9f80 82bd 53a5 573c
000001d0: b810 9abc 5f21 38bc 64e2 10bd 1773 9abd
000001e0: dc19 e4bb 9a20 6f3d 31e6 d63d 83fe 91bd
000001f0: 7ae5 e9bd 8ece 3ebc 4704 ddbc 8b77 863c
-0.055170972 0.063147284 -0.027141236 -0.010303274 0.030513005 -0.105529234 0.050064154 -0.033413526
-0.027566051 0.022437783 0.022507193 -0.018364677 0.007883826 0.03603766 0.063593805 0.045727905
0.016487207 -0.10214796 -0.10823551 -0.03493653 0.076145366 -0.048978955 0.016524265 0.023389699
0.024970766 -0.074276984 -0.10349289 -0.089808986 -0.07549485 -0.10057984 -0.06074108 -0.0119385
0.04692587 -0.03428143 0.0613218 0.025345923 0.042966094 -0.0028323117 0.05956731 0.02957688
0.05020481 -0.0544882 -0.09033075 -0.07298557 -0.08760316 -0.05906831 0.024956878 -0.038904622
0.05819263 -0.045819223 -0.0010621429 -0.08346955 -0.07132421 0.0121565955 -0.004140268 -0.032679103
0.008744473 -0.07004363 -0.09866543 0.030011505 -0.08861764 0.030342536 0.057213154 -0.09900669
-0.041283652 0.0034045198 -0.011007489 -0.041252457 -0.026328422 0.083371624 0.05280907 -0.06682521
-0.02778596 -0.030746318 0.012307181 -0.065165386 -0.0056999726 -0.039915673 -0.0121011585 0.010970346
0.038879994 -0.06653188 -0.013874657 -0.014543259 0.08247465 0.03491608 -0.060844842 -0.06902008
0.012057859 0.063315675 0.018566795 0.003909935 -0.0026519864 0.078611016 0.0055009313 -0.019524962
0.03403854 -0.058035236 0.043734215 0.09454462 -0.060801335 0.06506817 -0.053846173 -0.018464662
-0.018043859 -0.073207386 -0.070030764 -0.015033484 0.0003489672 0.008454542 0.019705683 -0.094084315
0.052303277 0.0042630057 -0.06372189 0.013161975 -0.0188068 -0.011238425 -0.035372153 -0.07541483
-0.0069610905 0.0583807 0.10493124 -0.071286224 -0.11420722 -0.011645926 -0.026979579 0.016414424

5.weight f4 [1, 128]
00000000: e69a c7bc f1e9 773d 2267 ed3c 32e7 7abd
00000010: 942b e3ba 2da5 26bd 2cc3 c73c 3bb6 b9bd
00000020: 816c 983d cb9d 073d 5ba3 1cbc 12b2 9a3c
00000030: 68ad ad3d 881c 27bb d4df e3bc 787d 7ebb
00000040: bf67 10bd f4c3 013d ce42 133b bc6a 493a
00000050: 18b2 a0bb ec50 c3bc 0801 6f3d 1efe 98bd
00000060: e17d 12bd 0ca3 3b3d 86be 973d b5fd 183d
00000070: 8721 16bd 7944 0d3d 1fa8 47bb 0f8b 8dbd
00000080: 2ab3 a43c 8602 01bd c700 bbbc 3de6 50bd
00000090: 8939 13b9 6d4d c13b 18d9 9fbb 1fc0 81bc
000000a0: 937d 393d 0c70 51bc 0c37 9ebd 40a6 913d
000000b0: 7857 9f3d 942e cabc 7adb bdbb 7b59 0a3c
000000c0: d286 2b3c c568 273d 2927 61b8 2130 c63c
000000d0: f491 19bd c35d ee3d 9a3f 8c3d f75e 993d
000000e0: 5a35 a23d 6661 4dbd 8a70 df3d a4c3 5abd
000000f0: 59de a53c 937f 613d 13f9 63bd 2810 443d
00000100: 2ac4 17bc 3b10 8bbd 8e04 1e3d 203e ba3d
00000110: 0c29 2cbd b5a2 30bd d267 2cbc bf3e 2a3b
00000120: 1ac8 cebc bbba 65bd 9032 473c b84e d23d
00000130: 8c4d 943d fdee 753d 0e2f 7cbd 0d9f 8d39
00000140: d8fe 9dbd f3e0 6f3d cc25 c63c d6e5 cbbb
00000150: 9b77 22bd 30ce e03b eb5a 84bd 7823 1cbd
00000160: 450d 80bd 73c3 003d 613b 41ba e2c1 19bd
00000170: fd5d 793c 8f9e 8abd dbc9 c53d f7b9 80bc
00000180: ce6c 473d 4bf9 4dbc b665 b6bd 0893 cdbd
00000190: e4cc 53bc f475 053d 2768 c9bd ed05 9dbd
000001a0: 12b6 83bb 406c cb3d 1ea3 4b3d 8d76 63bc
000001b0: 232e 873b ea8a 9a3d b23d 863b fbca 6f3d
000001c0: 1b2b ba3d cea2 553d 64ca bdbd 4402 d73d
000001d0: 5666 6e3b 733b a4bc 5b31 8f3d 0221 27bd
000001e0: cc38 7f3d aaf3 9fbd c1ad 82bd bd62 af3d
000001f0: e5b1 0c3d 2c63 5b3d 3b25 15bc e26d 7fbd
-0.024365854 0.06052584 0.028979842 -0.06125564 -0.0017331713 -0.040684868 0.024385057 -0.09067961
0.074425705 0.033109467 -0.009560431 0.018883739 0.0848034 -0.0025499184 -0.02781669 -0.003883211
-0.03525519 0.031681016 0.0022470239 0.0007683446 -0.004904043 -0.023842297 0.058350593 -0.07470344
-0.03576458 0.04580979 0.07409386 0.03735133 -0.036653068 0.03448913 -0.0030465198 -0.06911289
0.020104963 -0.031496547 -0.02282752 -0.051000822 -0.00014040446 0.0058991225 -0.0048781745 -0.01583868
0.045285773 -0.012783062 -0.07725343 0.07111788 0.07780355 -0.024680413 -0.005793986 0.008444185
0.010469155 0.0408714 -5.368065e-05 0.024192872 -0.037492707 0.116389774 0.068480685 0.07488816
0.07920332 -0.050141715 0.10910137 -0.053409234 0.020247625 0.055053305 -0.055657458 0.04786697
-0.009263078 -0.06790205 0.038578562 0.09093881 -0.042031333 -0.04312392 -0.0105228 0.002597734
-0.0252419 -0.056086283 0.012158051 0.10268921 0.072413534 0.06004237 -0.061568312 0.00027012118
-0.07714623 0.058564138 0.024187945 -0.006222467 -0.039664846 0.006860517 -0.06462654 -0.038119763
-0.06252531 0.031436395 -0.0007371214 -0.037538417 0.015220162 -0.06768524 0.096576415 -0.015713675
0.04868775 -0.012571643 -0.089061186 -0.100378096 -0.012927268 0.032583192 -0.098343186 -0.07667146
-0.004019507 0.099327564 0.049716108 -0.013883245 0.004125373 0.07546027 0.00409671 0.058543187
0.09090253 0.052157216 -0.092671186 0.10498479 0.0036376915 -0.020047879 0.06991836 -0.040802963
0.062310025 -0.07810147 -0.06380797 0.08563755 0.03434934 0.053561375 -0.009103115 -0.06236065
