openwakeword/resources/models/hey_mycroft_v0.1.onnx (onnx, 857691 bytes, 9 tensors)

1.weight f4 [128, 1536]
00000000: 1eea e0bd dbdc 183e 0646 323d 57ff fd3d
00000010: 0b85 1d3d 9354 943e 1d03 c03d 8f71 20be
00000020: f3e6 2d3e fead a53c 36fe 5abe 564b 35bd
00000030: 4244 653e b800 30be 75f0 0abe 1d85 c23d
00000040: ff5a 4dbd 172a 06be ca29 9c3c 4321 bdbd
00000050: 7990 7a3d e05c 603e bf66 0bbe 0025 15be
00000060: 161b 46be e319 083e 3076 92be a54a 923d
00000070: bfb6 803d ffbe ad3d cdf0 87be a1cc c73c
00000080: 18e4 89be f405 36be 9700 3bbe c56c 4b3e
00000090: 2279 493e dac5 733e d9d2 b4bd 9c60 313e
000000a0: d6f3 46bd d3b8 793e f321 873e 2e71 2fbe
000000b0: 1302 edbd 453d e0bd 8229 0fbe 7d2b 7abc
000000c0: 0a25 713e e8d1 1dbd 54d5 5bbe 27d6 ec3d
000000d0: 9d19 683e 6593 bdbd 1c0f 49be 5fe5 78be
000000e0: 51ea 2fbe 04d2 aa3e d8dc 2bbe 2cb1 21bd
000000f0: 268f 073e 00e6 103e 0d3d a8bb 832d cabd
00000100: 60b6 3b3e 29d2 3e3c c7c3 b03d 2797 c6bd
00000110: f8f1 7bbe 582e 2ebe 07bf 8abd 44cc 0c3e
00000120: ff5b 293e 5f98 16be af8d 4a3e 8e7b fc3c
00000130: b551 8cbd 4b3f a5bc b835 42be 7b01 38be
00000140: 4b4a 333e 2da6 8d3e 0d54 823e 16b7 1ebe
00000150: ed53 533e f543 b8bd 54d3 e43c 44fb a3bd
00000160: 7e86 bfbc a904 763e b675 cc3d badb 623e
00000170: ca80 823e 74b4 7abe d8ae a43b 8413 043e
00000180: 3e60 e4bd a458 0f3e fc5d 2c3e 70d8 703d
00000190: a48a 143e 1a51 5b3e 3369 093e f75e debd
000001a0: 5ea9 053e f775 b13d 2e43 57be ad1b 3ebe
000001b0: de82 573e 9a74 b6bd cf56 9c3c c3ee 333e
000001c0: 93ba e23d cde5 92bd 8830 0c3d e902 80bd
000001d0: 6072 813d 976a 753e a720 ffbd 56a4 5bbe
000001e0: 0e7b d5bd d546 583e 5c04 49be 1314 e7bc
000001f0: 91c2 2b3e 31b7 1a3e b3f4 78be 9c39 da3d
00000200: ac0c 5ebe 5096 25be 751b 1cbe 74c2 6f3e
00000210: be71 493e dcdd 323e 7d78 c4bc 57bf 3c3e
00000220: 5f5d d3bc b8e0 623d bf97 5e3e 097f 3ebe
00000230: f158 0ebe 2c9c 53be fb96 58bd 972d debd
00000240: 39a7 823e 8d86 a93d 8b74 81be 305d e03d
00000250: 8b28 8a3e aa05 debd 8b80 44be 9bae 55be
00000260: c927 f5bd 2da1 b03e f783 48be 8094 3c3d
00000270: a0f6 fc3c 4cb1 073e aefe 913d 4234 d7bd
00000280: e51f 1d3e df3b 4c3e c641 1b3d 7ccb c9bd
00000290: 898d fdbd 5189 b9bd 372f 33bd 0e16 623d
000002a0: 0a46 e43d 7aa4 dfbd 578d 4a3e 9b49 0e3c
000002b0: 188b 9abd 8ccc 2cbe 49c6 0fbe a41b 32be
000002c0: a419 bfbc d004 803e 66cf 5d3e 2f13 84be
000002d0: b606 523e 6135 b33a 83ae 003e 0f61 09be
000002e0: 3489 67bd e89e 783e b57f be3d bfd6 8c3e
000002f0: 1370 793e efcb 17be e7f1 e83a 8d75 003e
00000300: a99e c6bd 9691 f53d b5c1 523e c501 3dbc
00000310: 899a 9c3d f775 5b3e 5642 f13d e6a5 4dbd
00000320: dffb 0c3e a6f6 a93d 2888 41be cb2a 80be
00000330: 367f 383e d630 c13d c026 bd3d 5190 153d
00000340: e517 bf3d 03b0 fdbd fbe8 083d a392 06be
00000350: 2f6d 073e 6ce6 3a3e d58b 05be 099a 0dbe
00000360: a304 503c 267f 633e 2d81 07be 3be7 da3c
00000370: 6bc3 513e 8eb0 263e 8b4f afbe d690 253e
00000380: 4945 80be 1248 5d3c 58d0 63bd 44a5 0e3e
00000390: 89b1 2a3e b580 603e 23b8 abbc 3ceb 453e
000003a0: b49d 843c dd91 563d bd7f 7d3e be1a 57be
000003b0: b001 24be 40ce b9bd cc20 06bd 25a5 bebc
000003c0: cb43 313e 3d89 113e e7dd 81be f9c5 f83d
000003d0: da51 863e dd02 3cbe 0103 34be c542 55be
000003e0: a4d0 9fbd 67a0 943e fc3b 5abe ed24 40bd
000003f0: 8ebd a23d 3f02 0b3e 776e 643e 9053 efbd
-0.10982154 0.14928 0.04352381 0.12402218 0.038456958 0.28970775 0.09375594 -0.15668319
0.16982631 0.020224568 -0.21386036 -0.0442613 0.2238932 -0.17187774 -0.1356829 0.094980456
-0.05013561 -0.13101994 0.019062895 -0.0923486 0.061172936 0.21910429 -0.13613413 -0.14564896
-0.1934627 0.13291125 -0.28605795 0.071431436 0.06284856 0.08483695 -0.26550904 0.024389567
-0.26931834 -0.17775708 -0.18261944 0.19865711 0.19675115 0.23805943 -0.088292785 0.1732201
-0.048572384 0.24386911 0.2639309 -0.17133018 -0.11572661 -0.10949186 -0.13980678 -0.0152691575
0.23549286 -0.03853026 -0.21468097 0.11564284 0.2266602 -0.09256629 -0.1963467 -0.24306248
-0.17179228 0.33363354 -0.16783464 -0.039475605 0.132382 0.14150238 -0.005134231 -0.09871962
0.1833129 0.011646786 0.086310916 -0.09696799 -0.24604023 -0.17009866 -0.06774717 0.13749796
0.16539 -0.14706562 0.1978061 0.030820634 -0.06851522 -0.020171782 -0.18965805 -0.17969315
0.1750881 0.27665845 0.2545475 -0.15499529 0.20637484 -0.08997337 0.0279328 -0.080069095
-0.02337956 0.24025215 0.09983389 0.22154132 0.25488883 -0.244829 0.005025726 0.1289807
-0.11151169 0.13998657 0.16832727 0.05880016 0.14506012 0.21417657 0.13419037 -0.10857957
0.1305289 0.08665078 -0.21021721 -0.18565245 0.21046016 -0.08908959 0.019084362 0.17571549
0.110707425 -0.07172737 0.03422597 -0.06250555 0.063206434 0.23966442 -0.124574 -0.21449408
-0.104238614 0.2112077 -0.19630569 -0.028207814 0.1677344 0.15108944 -0.24312095 0.10655519
-0.21684521 -0.16170621 -0.15244849 0.23414022 0.19672295 0.17467445 -0.023983235 0.18432365
-0.025801359 0.05539009 0.21737574 -0.18603148 -0.13901116 -0.20665044 -0.05287836 -0.10848539
0.25518206 0.08277617 -0.25284228 0.10955274 0.26984057 -0.10840924 -0.1918966 -0.20867388
-0.11970479 0.34497967 -0.1958159 0.046040058 0.030879319 0.13251227 0.071286544 -0.10508014
0.15344198 0.19944714 0.037904523 -0.09853265 -0.12380511 -0.09059394 -0.0437462 0.055196814
0.111461714 -0.10920043 0.1978048 0.008684541 -0.07546061 -0.16874903 -0.14040484 -0.17393357
-0.023327656 0.25003672 0.21661147 -0.25795886 0.20510373 0.0013672524 0.12566571 -0.13415931
-0.05652733 0.24279368 0.09301702 0.27507588 0.24359159 -0.14823888 0.0017772288 0.12544842
-0.09698231 0.11990659 0.20581706 -0.011536066 0.07646663 0.21431719 0.11780231 -0.05020704
0.13767956 0.082989976 -0.18899596 -0.25032648 0.18017277 0.09433143 0.092359066 0.036514584
0.093307294 -0.12387087 0.033425312 -0.13141875 0.13225244 0.18251961 -0.13041623 -0.13828291
0.012696418 0.22216472 -0.1323287 0.026721587 0.20484702 0.16278288 -0.34240374 0.16168532
-0.2505286 0.013505952 -0.055618614 0.13930231 0.16669287 0.21924098 -0.020961827 0.19328016
0.01618848 0.0523852 0.2475576 -0.21006295 -0.16016269 -0.09072542 -0.03274612 -0.023272106
0.17311017 0.14212508 -0.2536461 0.12147135 0.26234323 -0.18360467 -0.17579271 -0.20826252
-0.07803467 0.29028627 -0.21311945 -0.046910215 0.07946311 0.13575076 0.22307764 -0.1168586

1.bias f4 [128]
00000000: 7f30 843e a602 223e bd9f 2a3e da9b 263e
00000010: b5c5 413e d9dd ea3c a6c5 0f3e 9953 863e
00000020: 089f 353e c8e9 1a3e 55d4 913d 085e 953e
00000030: 4206 593d f064 553e 7275 8c3e a0b6 083e
00000040: cedc 733e 0271 713e b517 473e 5c4d 023d
00000050: f440 653e 66f1 703e c337 8e3e b542 2d3e
00000060: 65cf 713e 1e55 123e 5b9c 493e 3ca3 273e
00000070: c527 393e b51a 583d c31c 4d3e 6f17 103e
00000080: 5072 853e d992 523e 4556 f33d 58e6 703e
00000090: 181e c33d c1a0 703e 4ff5 d03d e800 6d3e
000000a0: 9565 833e f270 593d de0c 653e 24f1 7d3e
000000b0: d1f9 243d 9312 823e aee6 d93c 298a 1a3e
000000c0: 34f9 503e 8936 083e f521 513e e75d 623e
000000d0: 3512 8e3c 0a5c 2a3d 9d31 983d bae0 053e
000000e0: a26d 703e 1f5f 233e e00e 5e3e 9502 633e
000000f0: 1807 433e e9f5 953e 0589 983e ff9f 8c3d
00000100: 5f15 703e 1300 be3d 5ba3 6f3d cded 6d3e
00000110: 7539 9b3e 38b4 953e 7432 4f3e 4617 7c3d
00000120: b47f 733d ac71 203e d7c6 443e f817 893e
00000130: 0b4b b53c c529 533e 59f1 543e 9027 c13c
00000140: d0a4 d93d d775 8d3c b8f7 0d3e cf95 713d
00000150: 7127 813e e359 853d e62c 843d 3d9a a43d
00000160: 9f61 5c3e b0d2 9d3d 13bc 3d3e cec4 833e
00000170: b202 a73d 0f8a 2f3d ea6f 543e 3c8b ec3d
00000180: 1b43 ac3d 28c4 773d c410 993e eb2a 3a3e
00000190: f300 083d 165e 913e 7b15 0a3e f3d4 823e
000001a0: 1237 363e ada2 b73d cbe2 b43d 7ffb 853e
000001b0: fac9 463e 2747 573e eaa6 363e af65 673e
000001c0: 4241 d73d 185f 103e 3f04 9f3d d97e 5a3e
000001d0: c5ef 4f3d ed86 643e 5012 913e 8650 493e
000001e0: f2d8 553e 20ca f13d 0ebc 7f3e 0e24 2a3d
000001f0: a5d7 f23d 4df2 cf3d 1954 763e 7d98 093e
0.2581825 0.15821323 0.16662498 0.1627039 0.18923075 0.028670238 0.1404024 0.26235655
0.17736447 0.15128243 0.07120577 0.29173303 0.052984484 0.20839286 0.27433354 0.13350916
0.23814699 0.23578265 0.19442637 0.031812057 0.22388059 0.23529586 0.27776918 0.16919978
0.23614271 0.14290282 0.19688551 0.16370863 0.18081577 0.052759845 0.20030503 0.14071439
0.26063776 0.2056383 0.11881689 0.23525369 0.09527224 0.23498823 0.10203039 0.23144877
0.25663438 0.05308623 0.2236819 0.24799019 0.040277306 0.25404796 0.026599254 0.15091766
0.20407563 0.13302054 0.2042311 0.22106133 0.017342666 0.04159168 0.07431338 0.13074008
0.23479322 0.15954255 0.21685362 0.22168954 0.19045675 0.29289177 0.29792038 0.06866454
0.23445652 0.09277358 0.058505397 0.23235245 0.30317274 0.29239058 0.2023409 0.061545633
0.05944796 0.15668362 0.19216476 0.267761 0.02213051 0.20621403 0.20795192 0.023578435
0.106271386 0.017268104 0.13864028 0.05898076 0.25225404 0.06511285 0.06453876 0.08037231
0.21521614 0.07706201 0.18528776 0.25736088 0.08154811 0.042856272 0.20745817 0.11549994
0.08411237 0.060489804 0.29895604 0.18180434 0.03320403 0.28392094 0.13484757 0.25553092
0.17794445 0.08966575 0.0883232 0.2616844 0.19412985 0.21023236 0.1783711 0.22597383
0.10510494 0.14098775 0.07764482 0.21337451 0.05076577 0.22317095 0.28334284 0.19659624
0.2088354 0.118061304 0.24974081 0.04153829 0.11857537 0.10153637 0.24055518 0.13437076

2.weight f4 [128]
00000000: 8bd8 7c3f 0742 613f 3e89 953f 171f 1d3f
00000010: b545 a83f 21e0 b63f 2d74 523f eb68 a13f
00000020: c5b3 bb3f 2d3b 903f e22d ab3f 2c76 a63f
00000030: 4d57 863f a0f5 873f 7c64 b23f 97e4 963f
00000040: 2a94 8b3f 6a50 a13f e287 9f3f 3573 a93f
00000050: d0f5 8e3f 54af ab3f 07fb a53f 7e44 623f
00000060: fecc 843f 77fb 6a3f a910 933f 73c5 8a3f
00000070: 7a51 5b3f d9eb 8c3f 8c59 8a3f 61c4 8f3f
00000080: 23f6 ac3f 2c7b 983f 91e0 4f3f ff36 593f
00000090: 3173 a33f b74a 703f b5de 9b3f 039a 9d3f
000000a0: a906 a83f 7449 b83f 6791 853f e76e 873f
000000b0: 1417 b73f 8e4d 943f f6ca c43f 4e18 293f
000000c0: 047c 8f3f 52df 5e3f 5f8f bd3f 7b9a ac3f
000000d0: a994 913f b78c 8d3f bfbf d33f 379e 6e3f
000000e0: 1b63 3c3f 905a 793f a515 5d3f e453 913f
000000f0: 2424 4d3f 0d06 923f 8431 9f3f 3866 833f
00000100: 29ea 993f a3f4 2a3f f027 7e3f 6a96 a93f
00000110: 3322 b83f e683 aa3f c442 bd3f 9695 af3f
00000120: 238a 8f3f eae9 903f abac 893f b644 453f
00000130: d2f4 ad3f b53c 543f a9bc 8c3f 83b6 933f
00000140: 3ed9 693f 4d99 be3f 6105 853f a4fe 883f
00000150: 4a6b 993f b1ff b33f 2066 933f a33a 683f
00000160: 2ec0 743f f9b7 9a3f 8eb1 973f ceef ac3f
00000170: 3222 823f 2152 c03f 756d 5a3f 6cc8 863f
00000180: 5f95 653f 570f 9f3f ee0b ae3f 5724 4f3f
00000190: 28d9 673f 375c 933f 7a6d 923f 9370 983f
000001a0: a084 a93f 759a a63f b151 a23f 0679 973f
000001b0: 88f5 6a3f 536f bd3f fa50 9d3f 621c a23f
000001c0: a4bb b93f 6b37 843f 7bfd 863f 3578 8f3f
000001d0: 324f 9d3f 2040 5e3f dc61 a03f 4e89 6e3f
000001e0: 9ffa 813f 1ecc 533f 52cd 8b3f 7af6 a63f
000001f0: 8977 673f cd94 a03f 207f a43f f0fa 683f
0.9876792 0.87991375 1.1682508 0.61375564 1.3146273 1.4287149 0.8220852 1.2610143
1.4664236 1.1268059 1.3373377 1.3004813 1.0495392 1.0621834 1.3936915 1.178851
1.0904591 1.2602665 1.2463343 1.3238283 1.1168766 1.3412881 1.2967232 0.8838576
1.0375059 0.91789955 1.1489459 1.0841507 0.856712 1.1009475 1.0808578 1.1231805
1.3512615 1.1912589 0.81202036 0.8484954 1.2769529 0.93864006 1.217734 1.2312626
1.3127033 1.4397416 1.0434998 1.058072 1.4303918 1.1586168 1.5374439 0.6605271
1.1209722 0.8705951 1.4809378 1.3484644 1.1373492 1.1058568 1.6542891 0.93210167
0.7358872 0.9740381 0.8636115 1.1353726 0.8013327 1.1408097 1.2436986 1.026557
1.2024585 0.66779536 0.9927969 1.3249028 1.4385437 1.3321502 1.4786 1.3717525
1.1214031 1.1321385 1.0755819 0.7705797 1.3590338 0.8290513 1.0995075 1.1540073
0.9134711 1.4890534 1.0392267 1.070271 1.1985867 1.4062406 1.1515541 0.9071447
0.9560574 1.2087394 1.185106 1.3510683 1.0166686 1.5025064 0.8532327 1.0529914
0.8968105 1.2426556 1.3597391 0.80914825 0.9056573 1.1512517 1.143966 1.1909355
1.3243599 1.3015887 1.268118 1.1833808 0.917809 1.4799598 1.2290337 1.2664912
1.4510388 1.0329412 1.0546106 1.1208559 1.2289793 0.86816597 1.2529864 0.9317826
1.0154608 0.82733333 1.0922034 1.3043969 0.9041677 1.254541 1.2851295 0.910079

2.bias f4 [128]
00000000: ddee 66bd a417 c8be 7f52 a5bd a1a6 babe
00000010: ab50 41bd 433b 873d ae4d a0be 4ee6 b33d
00000020: 9a94 403d 03fe 34be b7eb f33d 79d6 823d
00000030: ed12 48be fbad 15be 6d86 183e d721 e8bd
00000040: 3d6c 3b3d 7b80 9f3c 3e4f d1bd d58e 02b5
00000050: 58c7 95bd 0864 f63d 2193 51bc 9f59 d5bd
00000060: c72a 1abe 80be bebd 7cf1 08be e69b 5abe
00000070: bae4 a7be 5754 efbd 73d3 e8bb 7463 42be
00000080: 4d49 9f3d ab55 0cbc 9ce7 a7be c085 b4be
00000090: 5f49 eb3d d275 89be 95c3 163e b06c ce3c
000000a0: 3608 da3d 95cb 2e3d 06b7 08be 8495 94bd
000000b0: 7778 e0bb 89c8 13be 415f ce3d b976 bebe
000000c0: 763f 59bb b814 38be 16ad d23d 3f4c a73d
000000d0: 45c5 e0bd ecdd 08be 3f26 9a3c 6535 6cbe
000000e0: bc66 7bbe 2915 4ebe 032d b3be 3786 1bbd
000000f0: a5c4 cabe a757 173e 92d0 583e a00c e6bd
00000100: ffe1 4ebd b482 bdbe c366 79be 4e0b 543d
00000110: 85ac 373e 53bf 923d cf4d d43d b352 053e
00000120: 3293 1ebe b9eb debd f920 72bd 4c19 43be
00000130: 658a 4f3c 999e 54be cb66 d3bd dbc0 bfbd
00000140: 4aff 96be b28b 483d 05fc e9bd e404 3bbe
00000150: 23ba 7c3b 6bb8 5cbb 688b 733d d64e 92be
00000160: 0552 6fbe 0729 77bd de4b 04bd 25a4 e43d
00000170: c49a 85be 23a0 a83c 90a4 85be 4ffc 123e
00000180: d67c 27be 8693 813c ac27 293e 544b bdbe
00000190: b472 79be eeb0 b23d 0654 dbbd ea92 ce3b
000001a0: 9b69 9dbb 86fb 103e e350 933d b70e c63c
000001b0: fab6 5ebe 1eb8 923d b214 9cbd 49b3 02bd
000001c0: 0189 aa3a 9bf4 0fbe 1615 68be 492f aabd
000001d0: a4d3 c53c 914c 8abe 3e1d 0dbd 1ec9 13be
000001e0: 10bf c2bd 2b32 98be 50da 26be ce02 50bd
000001f0: 756d 8fbe 6ab1 12be a0ee 823c 8d68 5dbe
-0.05638014 -0.39080536 -0.080723755 -0.36455253 -0.04719607 0.066031 -0.31309265 0.087841615
0.047016717 -0.17675023 0.119101934 0.06388564 -0.1953847 -0.1461715 0.1489503 -0.113345794
0.04575752 0.019470444 -0.102201924 -4.863662e-07 -0.073134124 0.12030798 -0.012791426 -0.104174845
-0.15055381 -0.09313679 -0.13373369 -0.21348533 -0.32791692 -0.116860084 -0.007105285 -0.18983251
0.07777653 -0.008565347 -0.3279389 -0.35258293 0.11488604 -0.26847702 0.14723046 0.02519831
0.10646097 0.04267462 -0.13351068 -0.0725508 -0.006850298 -0.14431967 0.10076762 -0.37199953
-0.0033149398 -0.17976654 0.1028692 0.0816884 -0.10975126 -0.13365906 0.018817065 -0.23067243
-0.24550909 -0.2012526 -0.3499528 -0.037969794 -0.39603153 0.1477953 0.21173313 -0.11232877
-0.050508495 -0.3701378 -0.24355607 0.051768593 0.17936905 0.071653984 0.10366403 0.13019828
-0.15485838 -0.10884804 -0.059113476 -0.19052619 0.012667273 -0.20763625 -0.103223406 -0.09362956
-0.29491645 0.04896135 -0.11425022 -0.18263584 0.0038563095 -0.0033679258 0.05945912 -0.28575772
-0.23371132 -0.06034186 -0.032298915 0.111641206 -0.2609464 0.020584172 -0.26102114 0.1435406
-0.16356215 0.015817415 0.1651904 -0.36971533 -0.24360162 0.08725153 -0.107093856 0.0063041346
-0.004803849 0.14158449 0.07193162 0.024176938 -0.21749488 0.07164024 -0.07621135 -0.03190926
0.0013010801 -0.14058153 -0.22664294 -0.083098 0.02414877 -0.2701154 -0.034451716 -0.14432189
-0.095090985 -0.29725775 -0.16294217 -0.050783925 -0.28013197 -0.1432549 0.015982926 -0.21621914

4.weight f4 [128, 128]
00000000: 7515 563e fcb3 793e fa5f 843e 4dad 813e
00000010: aabb 8dbd ff8f 323f 89d3 2f3e a40a ba3d
00000020: 919e db3e 3dfc a6bc 023d 173f 47dd 8f3e
00000030: 162a 8d3e a8fc 113e 5813 653d 0eef 1f3f
00000040: 436e 293e 0f54 b6bc 2931 d83d e896 b93e
00000050: 4db7 013f b05a 2e3e afc0 793e f521 1fbd
00000060: adce 5a3d 5025 423e dc4b 853e df35 783c
00000070: d69c 4f3e 9e14 083f 3219 b2bc 5dfc 933d
00000080: 8c50 fa3d d9d4 a03e 8c81 b83d d799 6d3d
00000090: 14a2 003f 4e08 2b3e c7d8 4a3d c54c 0d3f
000000a0: 9a62 783e d5cc 3a3f 07e3 923e 333c f43e
000000b0: 86bb 823e e628 ef3e a56d 1d3f d4e6 983e
000000c0: afe8 8e3e e30c 873e 9abc c63d a12b e0bd
000000d0: fecc 6a3e 16a4 a73e 69e0 1a3f f4ea 223f
000000e0: 3f6f 5cbd 8e7e 8d3e 6c2a 8a3e 194c 903e
000000f0: 1158 6b3e 3c8c 28bc bf82 d6bd 5eeb 8e3e
00000100: b040 983e 58a9 b03e eb9c 3b3e a77a d63e
00000110: 6f6d 863e d02f 053e 2644 dd3d e38f ff3e
00000120: f4fe a43e 5b94 2dbe 4ced 683e ae8c f3bc
00000130: 8b01 db3e b5a8 453e 46a0 813e 02bf 533f
00000140: f7a9 2f3e 7133 3f3e 3202 2d3e 7567 353f
00000150: 78ca eb3d b1c3 d03c 8d31 523e 286d 4b3e
00000160: e189 cbbd b128 e53d 855a a83d 4314 fb3d
00000170: 32a2 713c 8747 063f b173 683e 24f7 1f3d
00000180: f931 013f 4e52 bc3e 7d02 bf3b a012 213e
00000190: 6653 d43e f171 403d a19c 3f3e f8b9 563e
000001a0: 1782 9e3e 2ccc a83e 881c 663e d3ba 853e
000001b0: 4ed2 8e3e c00b be3d 4d05 a13e b29a 983e
000001c0: 9367 33be 7762 143e c290 0e3e c4d0 003f
000001d0: e846 893c 0d71 203e 3206 e13e 3c31 353e
000001e0: afd4 13be f727 c0bc e592 1e3f 6125 543f
000001f0: 2338 873d dd65 0f3f 82d9 913e ce0f 8abd
00000200: ba47 8d3e 22ba 06be eb47 903c 45b4 193d
00000210: a6ca aebd d811 f6bd 175c 633d a960 183d
00000220: c7ef abbd 7a67 a2bd c14f 5dbd 025d 03bd
00000230: d68c ccbc 7d78 79be ac99 dd3b ee60 ee3c
00000240: 1e08 883d 2080 2f3e 8aa4 763e 2b76 bbbd
00000250: daed e7bd f9a6 7a3d 0faa 1b3e e3e3 99bc
00000260: a5a6 843d d602 1ebd 114c ecbc 0e72 8bbc
00000270: 803b c13d 3d7c a5be 4da6 6b3e 2bc4 28bb
00000280: 4f06 cdbd 020e 813c 2180 e53d e891 233d
00000290: 9117 aebc 793a 26bd 9268 e3bc 9c2e e5bd
000002a0: 81ee a8b9 4d11 84be 5a27 983c 7867 143d
000002b0: 198e bcbd ee9f 123d de62 da3c ebd0 3e3d
000002c0: abb7 4b3e 1331 673d 5fe4 963d 13b9 04be
000002d0: 0d95 6abe cac0 edbc f980 97be 8c74 383c
000002e0: 58ed 853e 4ae0 633d 969f 253d 7a9d 1a3e
000002f0: 3ff1 d2bd 01da ab3d 11bc 283e cc22 9f3c
00000300: 1248 d0bd 6ab1 9f3d 43be 2fbd 6dc4 1c3e
00000310: 167d be3c 9d90 30bd 1410 143e 4cc5 d5bd
00000320: 3b43 32be 6134 0e3e 121f ad3d 06f0 7e3e
00000330: dca8 05be f73b 403d fba7 e33d 46e9 34be
00000340: c68e 6a3d c1c1 40bd d116 b4bc 2d58 09be
00000350: 2294 443e e7cc 1abe 8450 c0bd 1a97 e6bd
00000360: 810d 373e 62b4 05be 6b31 bd3c 92fe da3b
00000370: 19f6 353d f16e 40bc 2e05 013c c79e 0c3e
00000380: 0eb9 c93d 0ebc 0bbe 350a cbbd c910 d4bd
00000390: 6f0d 58be fd07 6f3e b935 5f3d 411c 873c
000003a0: b755 453d fbf1 3fbd 1809 00be ead9 343a
000003b0: 0af3 3f3d e349 0a3e db06 83bd 26f6 8b3c
000003c0: df73 6b3d 2452 413d ca62 f3bc 3822 09be
000003d0: 35ce 503d eb67 25be 6261 80bd 4f60 ec3c
000003e0: f24b 563e 230e 13be 3044 8ebd 5ed3 d5bd
000003f0: c970 8c3d ae33 033d 0fd3 843c 70ec abbd
0.20906623 0.24385065 0.25854474 0.2532753 -0.0692056 0.6975097 0.17170538 0.09084061
0.42894414 -0.020383948 0.59077466 0.2809851 0.27571172 0.14256537 0.05592665 0.62474144
0.16545968 -0.02225688 0.105562516 0.36247945 0.5067032 0.17026782 0.24389909 -0.038850743
0.053419758 0.18959546 0.2603444 0.015149563 0.20274672 0.5315646 -0.02174053 0.07225869
0.12222394 0.3141239 0.09009084 0.05800804 0.5024731 0.16702387 0.04952314 0.55195266
0.24256364 0.729688 0.28688833 0.47702178 0.25533694 0.4671089 0.6149543 0.29863608
0.27911898 0.2637702 0.09703942 -0.109458216 0.22929761 0.32742375 0.6049867 0.6363976
-0.05381703 0.27635616 0.2698549 0.28183058 0.22982813 -0.010287341 -0.104741566 0.27913946
0.29736853 0.345042 0.18321578 0.4189045 0.26255366 0.1300652 0.10804014 0.49914464
0.32225764 -0.16951124 0.22746772 -0.029730167 0.42774615 0.19302638 0.2531759 0.8271333
0.1715468 0.18671967 0.16895369 0.7086099 0.11513227 0.025483938 0.20526715 0.19865859
-0.09938408 0.11189402 0.0822039 0.12259724 0.014748143 0.5245289 0.22700383 0.03905405
0.5046688 0.36781543 0.005829154 0.15729761 0.41469878 0.046983663 0.18712093 0.20969379
0.30958626 0.3296827 0.22471821 0.26119098 0.27894825 0.09279585 0.31449357 0.29805523
-0.17519979 0.14490686 0.13922408 0.5031855 0.016757444 0.15668125 0.4395004 0.17694563
-0.14436601 -0.023456557 0.61942893 0.82869536 0.06602504 0.56014806 0.28486258 -0.06741296
0.27593786 -0.13156942 0.017612418 0.037525434 -0.08534746 -0.12015122 0.055507746 0.037201557
-0.08395343 -0.07929893 -0.054031137 -0.03207112 -0.0249695 -0.24362369 0.006762704 0.029098954
0.06642173 0.1713872 0.24086204 -0.09153398 -0.113246635 0.061194394 0.15201591 -0.018785423
0.064770974 -0.038576923 -0.028844865 -0.017022159 0.09435177 -0.3232135 0.23012657 -0.002575169
-0.10010969 0.01575375 0.11206079 0.03993407 -0.021251472 -0.040583108 -0.027759824 -0.11190531
-0.00032221156 -0.2579445 0.018573452 0.036231488 -0.092067905 0.035797052 0.026658472 0.04658596
0.19894283 0.056443285 0.07367777 -0.12961225 -0.22908421 -0.029022593 -0.29590586 0.011258256
0.2615764 0.05563382 0.040435396 0.15099135 -0.1029992 0.0839119 0.16477992 0.019425772
-0.10169996 0.07797511 -0.042906057 0.15309305 0.023253005 -0.043106664 0.14459258 -0.10438022
-0.17408459 0.13887168 0.08453192 0.24896249 -0.13052696 0.046932187 0.11116024 -0.17667112
0.057265066 -0.047059778 -0.021983536 -0.13412543 0.19197133 -0.15117227 -0.09390357 -0.11259289
0.17876245 -0.13057092 0.023094853 0.006683179 0.04442415 -0.0117452005 0.00787477 0.13732444
0.098497495 -0.13645956 -0.09914056 -0.10354764 -0.21098875 0.23342891 0.054494593 0.016492965
0.048177447 -0.04686163 -0.12503469 0.0006898927 0.04686264 0.13504748 -0.06397792 0.017085146
0.05748355 0.047197476 -0.029710192 -0.1339196 0.050977904 -0.16152923 -0.06268574 0.028854517
0.20927408 -0.14360861 -0.069465995 -0.10440706 0.068574496 0.032031707 0.016213922 -0.08394706

4.bias f4 [128]
00000000: 687f 493c dbc0 9a3e a0fb ad3d 7090 f83d
00000010: ad97 833e 6f8f 6d3d 4200 913e 3775 a23e
00000020: 9fa7 7e3e fbe0 fa3c 5da2 053d eb7b 033d
00000030: c6e9 9fbd 69b8 43bd 6d42 6b3e c58e 8f3e
00000040: 2b72 5d3e 1a77 e23d 05a0 7fbc 4c2b bf3d
00000050: 66bf 693c 8934 cf3d 6bb9 7c3d 9114 0d3b
00000060: 1d72 683e cadd b43c 5539 4ebd 98db 4d3e
00000070: 8eb2 4e3e 49df fdbc 25e8 543e d03e 4b3d
00000080: edb2 ccbd ed41 6e3e 5e59 dabd 6f70 813e
00000090: 82eb 3abd 43d4 a3bd c248 e0bc 2986 983e
000000a0: 9947 14bd f94b 89bc fd60 373e bb91 08bc
000000b0: 08fb 113e 5d9f 8e3e 7d02 59ba c5f9 0f3e
000000c0: 5af9 5d3c 3e5e f73d 57c6 7a3d 9697 4bbb
000000d0: 63c0 3cba 6d21 4e3e a885 acbd 2b48 0c3e
000000e0: 3cd6 643d c89c 853e 6664 9a3d 8c03 563e
000000f0: 0131 2d3e 7874 2ebd baf9 193e c1a1 783e
00000100: e258 8b3e ebad ed3d c90f c23d 1983 533e
00000110: e48c 84bd 3ae5 5d3e b4fc a23d f808 a1bc
00000120: d0dc 813e 6997 983d 3bca c4bc 2659 dabc
00000130: 8e13 2b3e bffd 903e 3903 6d3e c4d6 f13d
00000140: dd65 a63e f075 833e d4ca 8dbd d380 893e
00000150: 79c3 d2bc efa1 173e 1cc7 0d3e a160 793e
00000160: c9f9 4c3e b497 a23e 8efc 343d 03af 943d
00000170: deb4 ae3d fe4f c0bd 8d23 683e dbaa 993b
00000180: cd67 d43d cd19 f53d aab2 433e dec7 373d
00000190: 1c31 093c 99e9 99bd 98d8 df3d b462 3fbc
000001a0: 3579 843e 2df1 93bc e707 e5bd 2e2e 7e3e
000001b0: fd85 a13e fe43 ad3e 21d2 983e 9f58 433e
000001c0: b81e 2e3e c201 fe3d a0ac 27bc 2601 363e
000001d0: 3797 a43e 40d3 d53c 7b45 b03c c369 89bd
000001e0: 9843 8c3e 4c14 84bd e275 49bd 5ba2 66bd
000001f0: cca1 173d 519b 943e 35c3 5abd be3b dd3d
0.012298442 0.30225262 0.08495259 0.12136924 0.25701657 0.057998117 0.2832051 0.31730053
0.2486863 0.030624857 0.032625545 0.0321006 -0.078082606 -0.04778329 0.22974558 0.28038612
0.21625583 0.11057873 -0.0156021165 0.0933443 0.014266824 0.10117442 0.061700266 0.002152715
0.22699781 0.022078414 -0.050347645 0.201033 0.201853 -0.03099026 0.20791681 0.04962045
-0.09995065 0.23267336 -0.10661577 0.25281093 -0.045634754 -0.0799947 -0.027378444 0.29789856
-0.036201093 -0.01675986 0.17908092 -0.008335526 0.14255917 0.2785596 -0.0008278264 0.14060123
0.01354822 0.12078522 0.061224308 -0.0031065694 -0.0007200299 0.20129938 -0.084239304 0.13699405
0.055868372 0.26096177 0.07538681 0.2089979 0.16913225 -0.042591542 0.1503667 0.24280454
0.2721625 0.11605438 0.09475667 0.20655479 -0.06472185 0.21669474 0.079583555 -0.019657597
0.2536378 0.07450754 -0.024022212 -0.026653837 0.16706678 0.28318593 0.2314576 0.118085414
0.3249959 0.25675917 -0.06923452 0.26856098 -0.025727974 0.14807867 0.13845485 0.24353267
0.2001716 0.31756365 0.044186167 0.07259943 0.085305914 -0.09390257 0.22669812 0.004689557
0.10371361 0.11967812 0.19111124 0.044868343 0.008373525 -0.07515258 0.10929984 -0.0116812475
0.25873724 -0.018059338 -0.11183148 0.24822304 0.31547537 0.33840936 0.29847816 0.19076775
0.17003906 0.12402679 -0.010234028 0.17773876 0.32146618 0.026101708 0.021517506 -0.067096256
0.2739532 -0.06449184 -0.049184687 -0.056307178 0.037019536 0.29024747 -0.05340882 0.108024105

5.weight f4 [128]
00000000: f037 c53f 10b5 983f a234 9f3f f8e9 973f
00000010: ff0b 993f f567 b93f dc67 943f 940a b33f
00000020: 277d 923f 8d1f a63f 5302 a23f b481 a43f
00000030: 1458 cc3f 75e8 a23f 84ab ab3f 612b 953f
00000040: 32eb d03f 5c4c 9f3f 0ecd a63f 5e8c a03f
00000050: 2715 973f e316 8a3f 30aa 833f 2ee6 a73f
00000060: 1f66 b83f 9abc af3f 4ac4 bd3f 5112 933f
00000070: 1f58 943f 19a5 9d3f 1d3a 993f 9a84 b03f
00000080: 1110 aa3f dcb3 cd3f 5a37 a23f 62c2 893f
00000090: 5b23 9f3f f0b6 af3f 345c 813f e974 c23f
000000a0: cd25 ad3f 6fa5 aa3f 4351 963f e771 c33f
000000b0: 55ee 8b3f 1567 ac3f 2a5c 953f 6d67 8c3f
000000c0: 383d b93f 624c 943f fd1d 8a3f 75ad bf3f
000000d0: 42d2 a93f 638f a23f 1e1d ba3f e74e ac3f
000000e0: 5e84 a43f 3d94 9d3f 8b5f 993f acd3 a43f
000000f0: a480 b33f d2dc ac3f 4ef3 833f 0f01 963f
00000100: 4b43 983f b8ec 973f 8c0a bf3f a94c 9d3f
00000110: 9169 a73f 7859 8c3f d4c2 963f 184c 9e3f
00000120: e6e2 9d3f d392 9b3f ea94 b13f 83ab bf3f
00000130: adba 923f aa8b 893f 059a a13f 6e72 9c3f
00000140: d79e 883f fe06 a03f 126e c33f f859 913f
00000150: c453 c33f f00f 9f3f 2e22 9b3f c491 a83f
00000160: a728 943f acce a23f 94c3 883f 52ee 8c3f
00000170: 7d39 8b3f dfc3 b03f b486 b23f 02c3 ac3f
00000180: 2c93 953f 480d 9f3f 3a62 923f c123 b03f
00000190: 8aff bb3f b35f ad3f 48cd 953f 537a ae3f
000001a0: 5b85 cb3f b80a a13f e165 9f3f 8743 823f
000001b0: 05c5 8e3f cb9a bd3f 6f2c db3f 69d8 973f
000001c0: e5eb 873f 9e3b 993f f4d5 9f3f e93b 823f
000001d0: 3279 b03f 42f2 a53f 0cbb a03f e89e c43f
000001e0: 40cf 8c3f a1cb a73f 28fe a63f 49bc b73f
000001f0: 093a b23f a0e5 933f 48ff a03f 552c 943f
1.5407696 1.1930256 1.2437937 1.1868277 1.1956786 1.448485 1.1594195 1.3987603
1.1444443 1.2978379 1.2656959 1.2852082 1.5964379 1.272719 1.3411717 1.1653863
1.6321776 1.2445178 1.3031328 1.2542837 1.180333 1.0788234 1.0286312 1.311712
1.4406165 1.3729432 1.4825528 1.1489965 1.1589392 1.2316009 1.197086 1.3790467
1.3286153 1.6070514 1.2673142 1.0762446 1.2432665 1.3727703 1.0106263 1.5191928
1.3527161 1.3331736 1.1743549 1.5269135 1.0932108 1.3468958 1.1668751 1.0969063
1.4471807 1.158581 1.0790402 1.497481 1.326729 1.2700008 1.4540136 1.3461579
1.2852895 1.2310864 1.1982282 1.2877097 1.4023633 1.3504889 1.0308626 1.1719073
1.1895536 1.1869116 1.4925094 1.228902 1.3079091 1.0964804 1.1778207 1.2366972
1.2334869 1.2154182 1.387357 1.4974216 1.1463219 1.0745747 1.2625128 1.2222421
1.0673474 1.2502134 1.5267966 1.1355581 1.5259938 1.2426739 1.2119806 1.3169484
1.1574906 1.2719321 1.0684686 1.101023 1.0876919 1.3809775 1.3947358 1.3497012
1.1685538 1.2425928 1.1436226 1.3760911 1.4687359 1.354483 1.1703272 1.363108
1.5900072 1.2581396 1.2452966 1.0176858 1.1153876 1.4812864 1.7122935 1.1862918
1.0618864 1.1971319 1.2487168 1.0174533 1.3786986 1.2964556 1.2557082 1.5360994
1.1000748 1.3109018 1.3046312 1.4354335 1.3923961 1.1554451 1.2577906 1.1576029

5.bias f4 [128]
00000000: 0d3d 793c 53bb 82bd 4b09 e5bc 1d94 073e
00000010: 03f8 b23d 70b0 873d 07d1 8ebd fa18 8ebe
00000020: e3bd cf3d efaa ffbc 1a12 893d 69c1 ea3c
00000030: f6ba 843d fc2b 8f3d bc14 9abe 98e0 41bd
00000040: d798 babd dfb2 323d 6497 ac3d 33ad 993c
00000050: 50c2 693d ea0f f3bd 9b8f 06be 43f6 e837
00000060: 7154 04be c65a 2d3e 6601 79bd 1ff9 9ebc
00000070: 67ea a73c d518 45bb f0a3 713d 9717 b43d
00000080: ed8b 8f3c 953f 8a3e cbf4 2b3d 42d0 a9be
00000090: ad1d 193d 23bf 893b 04d1 12be 4106 773e
000000a0: 3a28 e43d 80af 0f3c 08d3 52bd e20d 073e
000000b0: 34c4 0cbd cc56 273e 992f c53d b76f 93bd
000000c0: e153 6c3e 1789 90bd 615b 11be 2685 5c3e
000000d0: bddb 403e 8c16 2ebd e4e7 13bd ea39 c73c
000000e0: cc88 a83d bbd1 003e 40dd 123c af05 d7bc
000000f0: 2055 14bd 4698 083d 80f4 c6bd 8201 51bd
00000100: 855e 69be bce1 0d3e d870 c3bd 58cc 833b
00000110: c59e 1d3d 9ded dbbd ab2a b43d 5b94 efbb
00000120: a3d2 d0bc dbae d93c 622c d83d 333b acbb
00000130: da49 4bbe 7f51 06bd 118a 293d 4344 653e
00000140: 8655 b5bd 1e86 b6bd b8ec 4c3e 3c50 19be
00000150: 1ae3 133e 9fc3 f8bc 7038 92bc 337b 14bd
00000160: 9f17 7a3b 42ce 2c3e b46c 90bd f4d8 82bd
00000170: 0e93 24ba 3024 ec3d fa7f ccbd e627 fe3d
00000180: 0344 b4bc 4d83 853d d8d0 9abd e481 bc3d
00000190: 48d5 0e3e 44b8 eb3d db61 5ebd 39fd 193e
000001a0: 2d9d a1bb c750 0e3e 4cce 403e b6aa 2abe
000001b0: 977c 9dbd 8df4 633e 2db3 9e3e 0050 023d
000001c0: 721b cbbd 2f37 3abc d586 803d 23c2 bfbe
000001d0: 5085 493e 7358 b13d 2b3f 3e3e 5d14 8e3d
000001e0: 7eb4 64be c88f 823c 3262 c13d ce80 323e
000001f0: b9c6 353c 99dc f0bc b4ea 023e d2fc 88bd
0.01521231 -0.063833855 -0.027958533 0.13240094 0.08738711 0.0662545 -0.069734626 -0.2775343
0.1014364 -0.031209437 0.06692906 0.028656678 0.064809725 0.06990811 -0.30093944 -0.04733333
-0.09111183 0.043627616 0.08427313 0.018759346 0.057070076 -0.1186827 -0.13140719 2.777123e-05
-0.12922837 0.16929159 -0.06079235 -0.0194059 0.020497514 -0.0030074615 0.058994234 0.08793562
0.017522776 0.27001634 0.0419815 -0.331667 0.037381817 0.0042036935 -0.14337546 0.2412348
0.11140485 0.00876987 -0.051470786 0.1318889 -0.0343668 0.16341704 0.09628219 -0.07199042
0.23078872 -0.07057398 -0.14195015 0.21535167 0.18833824 -0.04250197 -0.03610982 0.024319608
0.08229217 0.12580006 0.008963883 -0.026247827 -0.036213994 0.033348344 -0.097146034 -0.05102683
-0.22789963 0.13855642 -0.095430076 0.0040221624 0.038481493 -0.107386805 0.08797201 -0.0073113865
-0.025491064 0.026572635 0.1055534 -0.0052560805 -0.19852391 -0.032792564 0.041391436 0.22389321
-0.08854203 -0.089122996 0.20012176 -0.14972013 0.14442101 -0.030366717 -0.017849177 -0.036250304
0.0038161052 0.16875556 -0.070519835 -0.06389037 -0.00062780164 0.1153034 -0.09985347 0.12409954
-0.022005087 0.06519184 -0.07559365 0.09204462 0.13948548 0.11509755 -0.05429254 0.15038003
-0.004932067 0.13898002 0.18828696 -0.16666684 -0.07689779 0.22261257 0.30996075 0.031814575
-0.09917344 -0.011365696 0.06275717 -0.37452802 0.19679761 0.086594485 0.18578784 0.06937478
-0.22334477 0.0159377 0.094425574 0.17431948 0.011094742 -0.029402064 0.12784845 -0.06688847

7.weight f4 [1, 128]
00000000: d9c4 083f ccd8 bd3e 8759 893e 3fa6 703e
00000010: b470 8f3e dba1 f73e eaf5 ba3e 7b0e 07bf
00000020: 59da 833e 6fb7 c33e 7373 963e 060b ac3e
00000030: d4fb 1e3f d62d 943e d597 eabe 946b b23e
00000040: 2580 24bf 239c a33e 956b b43e 1b7a ad3e
00000050: c102 743e b478 c93e 3132 c13e b9e0 be3e
00000060: ed9a e1be 1d7c c13e 76c9 013f 74ea b63e
00000070: 5098 bb3e fa8f 953e 4905 c43e 4bd0 d53e
00000080: 60e7 c63e fcbe 16bf a185 bf3e 37c6 2fbe
00000090: 853c 903e 3d81 bf3e 3009 cf3e 6172 09bf
000000a0: 17d0 d03e 4fca d43e 453f f33e 00f6 f33e
000000b0: 43ba 9f3e 8f13 bdbe fcda 6d3e 8140 b13e
000000c0: 672f 043f 3d82 d33e f73d f63e 62f5 f43e
000000d0: a099 b83e 62e3 9abe a020 023f c2f2 cabe
000000e0: 408d ce3e 1ab7 69be 8d20 953e 8ae9 ee3e
000000f0: eca2 ccbe 6170 ca3e 9b61 b33e f20f ce3e
00000100: 1bdb 83be d288 613e 18ce fabe 2e5b c43e
00000110: 7732 c23e 208c d63e c3ab 513e 802b ca3e
00000120: b3d0 db3e 85b9 ad3e 2d38 d13e c2d8 0c3f
00000130: 3a82 6d3e 9a43 1a3e 3e19 ca3e c2da 863e
00000140: 5ccc 3b3e d793 9fbe 7cbd ef3e a5b1 9b3e
00000150: 43a0 ec3e 5e51 d13e 8170 dc3e 686f b7be
00000160: bf37 d03e e0fa a0be 36bc c23e 6dfd f23e
00000170: c55f a13e ace3 d43e 0a26 e0be e504 b23e
00000180: c1a6 893e 59b6 933e ede8 c73e d763 cf3e
00000190: 484c ec3e 385e c73e 9515 c63e c1e8 b93e
000001a0: aaa1 25bf 55a8 983e 560c a83e bcb8 bd3e
000001b0: 7f8f ab3e 1e8a f8be 225a 3dbf c880 b53e
000001c0: cb5e 913e 6c19 bf3e da91 9c3e 8202 3cbd
000001d0: e884 d4be aceb ad3e ba23 a33e 3b12 0a3f
000001e0: e18f a33e 5ec4 ca3e 5235 b93e 1afd cd3e
000001f0: 6a2c c73e 2062 07be 4984 943e d0a7 df3e
0.53425366 0.37079465 0.26826116 0.23500918 0.28015673 0.48365673 0.36515743 -0.5275647
0.25752524 0.38225886 0.29384956 0.3360216 0.6210301 0.2894122 -0.45818964 0.348477
-0.64258033 0.3195506 0.3523833 0.33882222 0.23829176 0.39349902 0.37733606 0.37280825
-0.44063511 0.37790003 0.5069803 0.3572575 0.36639643 0.29211408 0.38285282 0.41760477
0.388484 -0.5888517 0.37406638 -0.17165457 0.28171173 0.37403288 0.40436697 -0.53690153
0.4078376 0.415606 0.47509208 0.4764862 0.31196794 -0.36928985 0.23228067 0.34619525
0.5163483 0.413103 0.4809415 0.47843462 0.36054707 -0.30251604 0.5083103 -0.39638335
0.4034214 -0.22823754 0.29126397 0.4666255 -0.3996805 0.39538863 0.35035405 0.4024654
-0.25753102 0.22024849 -0.48985362 0.38350815 0.37929127 0.41903782 0.20475678 0.39486313
0.42932662 0.33930603 0.4086317 0.55018246 0.23194209 0.1506485 0.39472383 0.26338774
0.18339676 -0.3116748 0.46824253 0.3040897 0.4621602 0.4088239 0.43054584 -0.35827184
0.4066753 -0.31441402 0.3803422 0.47458974 0.3151838 0.4157995 -0.43779022 0.3476936
0.26885036 0.28850058 0.39044896 0.4050586 0.46151948 0.3893907 0.3868834 0.3631039
-0.64699805 0.29815927 0.32821912 0.37055004 0.33507916 -0.48542875 -0.73965657 0.35449815
0.28392634 0.37324083 0.30580026 -0.04590083 -0.4150765 0.33968866 0.31863195 0.5393407
0.31945708 0.3960294 0.36173493 0.40232164 0.38901073 -0.13221025 0.29007176 0.43682718
