openwakeword/resources/models/hey_rhasspy_v0.1.onnx (onnx, 204081 bytes, 9 tensors)

1.weight f4 [32, 1536]
00000000: 1e9e 3e3d 2a80 ea3b 401f c83c 76f6 103d
00000010: 1661 24bc 4390 133d edfe f13c 3271 b63c
00000020: ef62 7c3d 97ea cf3c 9ceb 313c 36a4 353d
00000030: 80da e3bc ea23 413d 2a12 a43c 3068 b7bc
00000040: fefe 6cbc 050a 1b3d f634 843b 02c2 3c3c
00000050: cc32 3e3d 9041 8f3c da81 71bc 0306 43bb
00000060: 3ee7 eabc 8aa4 e5bb e9c8 7aba d64a 003d
00000070: e90b 8c3b 2103 773c fd15 c1bc afb8 a73a
00000080: f3dd 1d3d 4654 31bc 0852 5cbd 853a 0d3d
00000090: bb9d cf3c 7dd0 0b3b 3d7c 983d eb76 863b
000000a0: 7a8c eb3c 09fc 893c be9f b13c 9db7 fabc
000000b0: c028 183d 8053 dbbc 2142 b8bb eadc 43bc
000000c0: 86da dabc 576f 2bbc ab1e 9a3c 8e21 3ebc
000000d0: be14 22b8 9ffe b9bc ba53 c63a d2ed 0bbb
000000e0: e610 dbbc 3a8b e33c bd36 373b 1c2f eabc
000000f0: ac40 c2bb 60bd 393d 8368 123d 96d4 833d
00000100: eb80 1c3b 3af8 8b3c 7498 fd3c e030 0c3d
00000110: 0be3 85bd 8add 07bd 7952 9bbd a5ac b63c
00000120: d90a ad3d 2152 033a c233 3fbb 4090 c8bb
00000130: ca40 ca3b 4643 b6bd 63a8 3abc 31b7 ba39
00000140: 3994 99bd fd53 8e3b 5018 55bc a1d1 8a3c
00000150: 21ef 443d 7284 e3bb a2f5 63bc 79f7 093d
00000160: fe1f 4b3d c728 4a3c 418e 1bbd 2efd e63c
00000170: b049 863c 3bc5 05bd b1bd 463d b1a8 263c
00000180: 48c9 99bb f22d 053d f858 fc3c 9503 3d3d
00000190: b21d 4ebd d305 023d 8352 8fb9 5121 373d
000001a0: 5cc3 403d 7fd9 973c ff81 0abc 5f4b 453c
000001b0: b9a3 133c 6301 61bc b8e5 c0bb 5f51 4b3c
000001c0: 53bd b33c c8d6 29bc 13c3 3a3d 0441 a2bb
000001d0: 1e62 6e3c ce41 d73c f74c 003d 19f6 843c
000001e0: 1f02 7c3c e865 7f3d 7c23 e1ba 8601 473c
000001f0: 90ae c13c 658b e8bc 82dd 94bc ed2d c9b9
00000200: f6e9 9c3c 8069 36bd 9a2e 813c 46ad d23a
00000210: 31af ad3b 525c 853c fb16 d439 66ea 8dbc
00000220: 6e9e 6e3d 45a6 41bb 76b5 e03c 11dd 96bb
00000230: edd9 89ba 1bb4 abbc 4d79 31bb 8369 afbc
00000240: a970 83bc b969 18ba b566 d6bc ba62 c0bb
00000250: 9719 c0bc 2531 853c aa77 6d3c dd89 c23c
00000260: 3f46 3abc 5610 663c 9812 01bc 2d46 013c
00000270: 50cd cc39 8d1e 48bc 2ded 3dbc f0f3 3ebd
00000280: 68af 563c 182e a63c aaed 6d3b aaa1 133d
00000290: 1b4c 983c d284 72bd c3b6 07bd 1a0e f73c
000002a0: 9f1c 6bbb ad88 22bd b4a3 3bbd aba0 c63a
000002b0: 51f3 ea3c 2ee5 88bd b398 98bc 3684 3dbb
000002c0: 9d50 15bd b542 653d 60bd 823c 56fa 6cbc
000002d0: 346a 9a3c 72d8 613d 4c45 28bc ba9d d1bc
000002e0: ada6 163d 476b d2bb 2624 17bc a2c0 643c
000002f0: f78d 013c 3da2 b7ba 713d 863d 8a96 02bc
00000300: 836b 6cbd 5c0e d63c 93be 293c 08dc d93c
00000310: 9f3a 78bd b00c 67bc 1a24 3abb 332a 06bb
00000320: 5f94 3f3d 37ec 3d3c 6599 9d3c c4c6 0f3c
00000330: 7519 823c 392e b0bb 5e25 0dbd 15a5 4e3b
00000340: ebca 1f3c 7e08 84bd 708d 3b3d 3443 87bd
00000350: ecb3 4ebc 5f38 fabc b042 c43b 20a6 453d
00000360: 7825 a03b 0695 533c 9b5a c13a 8baa 243d
00000370: 9516 dc3c 26f3 50bd fadd 88bc dcd8 63bb
00000380: c4d3 9d3c fe39 643c d61a 9d3c 2f90 84bd
00000390: f2ef 5dbb ce85 823a cb78 b53c 6177 b0bc
000003a0: 4e2b f9ba c4a5 963c d681 b9bb 8219 77bb
000003b0: c303 92bb f240 003d c95c 6cbc c4ad e53c
000003c0: 593e 323d c239 44bc 1bcf aabc ff51 373d
000003d0: f9ec 5dbc 0a52 1a3d e546 adbb 9c1c b23c
000003e0: 8393 743c f1e1 7a3c 84b9 983c 59be 583d
000003f0: d5f9 8bbc e6db 92bd 8526 19bd a75c 83bc
0.04653751 0.0071563916 0.024428964 0.035391293 -0.010032913 0.03602625 0.029540503 0.022270773
0.061617788 0.025380416 0.010859396 0.044346057 -0.02781415 0.04715339 0.020028193 -0.022388548
-0.014465092 0.037851352 0.0040346337 0.011520864 0.046435162 0.017487317 -0.014740432 -0.0029758222
-0.028674718 -0.00700814 -0.0009566681 0.03132137 0.0042738807 0.01507643 -0.023570055 0.0012796129
0.038541745 -0.010823315 -0.05378917 0.034479637 0.025343766 0.0021333985 0.074455716 0.0041035316
0.028753508 0.016843813 0.021682616 -0.030605132 0.037148237 -0.026773214 -0.0056231176 -0.0119545255
-0.026715528 -0.010463557 0.018813452 -0.01160468 -3.8643127e-05 -0.02270442 0.0015131154 -0.0021351469
-0.026741456 0.02777635 0.002795621 -0.028586917 -0.0059281196 0.045346618 0.0357442 0.06437032
0.0023880552 0.017086137 0.030956484 0.0342263 -0.06537446 -0.03317026 -0.0758409 0.02229912
0.08449335 0.00050094916 -0.0029175137 -0.0061207116 0.0061722742 -0.0889955 -0.011392686 0.00035613173
-0.07498974 0.0043435083 -0.013006285 0.016945662 0.048079614 -0.006943279 -0.013913544 0.033683274
0.049591057 0.012338824 -0.03797746 0.028196897 0.016392559 -0.032658797 0.048520748 0.010172055
-0.004693184 0.03251452 0.030804142 0.046145994 -0.05032129 0.031743836 -0.00027336561 0.044709507
0.04706131 0.018536327 -0.008453845 0.012041896 0.0090112025 -0.013733241 -0.0058867596 0.012409537
0.021940863 -0.010366149 0.045596194 -0.004951598 0.01454976 0.026276495 0.0313234 0.01623063
0.015381365 0.062353045 -0.0017176713 0.012146359 0.023642808 -0.028386781 -0.01817203 -0.00038371925
0.01915453 -0.044534206 0.015769292 0.0016073368 0.0053004255 0.016279373 0.00040452913 -0.017323684
0.05825656 -0.0029548567 0.027430277 -0.00460399 -0.0010517217 -0.020959904 -0.0027080358 -0.021412617
-0.016044931 -0.0005814094 -0.026172021 -0.005871144 -0.023449702 0.016258786 0.014493862 0.023747379
-0.011369287 0.014041981 -0.007877968 0.007890266 0.00039062882 -0.012214315 -0.011592192 -0.046619356
0.013103344 0.020285651 0.003630499 0.036042847 0.018590977 -0.0592087 -0.03313328 0.030158091
-0.0035875214 -0.039681125 -0.045810416 0.0015154084 0.028680475 -0.066843376 -0.0186275 -0.0028917915
-0.036453832 0.05597182 0.015959442 -0.014463982 0.01884947 0.05513806 -0.010270428 -0.025587905
0.03678005 -0.00642148 -0.009224927 0.013961943 0.007907382 -0.0014010143 0.06554688 -0.007970462
-0.05771972 0.026129894 0.010360378 0.026594177 -0.06060278 -0.014102146 -0.0028402866 -0.002047193
0.046772357 0.011591963 0.019238183 0.008775417 0.01588128 -0.005376604 -0.034459464 0.0031531502
0.009752969 -0.06446932 0.045789182 -0.06604615 -0.012616139 -0.030544458 0.005989395 0.048254132
0.004887279 0.012913948 0.0014751734 0.040201705 0.026866237 -0.051013134 -0.01670741 -0.003476671
0.019266017 0.013929842 0.019177835 -0.06472813 -0.0033864942 0.000995809 0.022152325 -0.0215413
-0.0019010098 0.01838959 -0.0056612296 -0.0037704413 -0.004456015 0.031311937 -0.014426419 0.02803696
0.04351649 -0.011976661 -0.020850709 0.044755932 -0.013545268 0.037675895 -0.0052879923 0.021742158
0.014927748 0.015312658 0.018643148 0.052915905 -0.017086903 -0.071708485 -0.03739025 -0.016035391

1.bias f4 [32]
00000000: c590 0a3b e8f0 d539 a15d f9bb b74a 98ba
00000010: 803d a8bc 9b50 abbc ebe4 2d3c af08 df3c
00000020: d281 ee3b 7181 80bc 4e93 b93c 1e0f 623c
00000030: 7f7a d03c fd0e 743c a6d4 923b 78f1 9039
00000040: 59cc 713c 1ff4 7b3b 9d64 39bc 5373 633c
00000050: 8b5b 6fbb 1a55 8d3a fe36 3e3c 55d8 20bb
00000060: 3c49 d73a d879 353b aeac f43c 5c2d b6bc
00000070: 5060 8a3c 2c04 da3c fe3e 003c 3b62 efbb
0.0021143418 0.00040806015 -0.0076100384 -0.0011618946 -0.020537138 -0.02091246 0.01061366 0.02722582
0.0072786594 -0.015686722 0.022653248 0.0137975495 0.025449036 0.014896152 0.004480916 0.0002764573
0.014758193 0.0038445068 -0.011315492 0.013882476 -0.003652307 0.0010782809 0.011609791 -0.0024543006
0.0016425024 0.0027691033 0.029867496 -0.022238426 0.016891629 0.026613317 0.0078275185 -0.007305411

2.weight f4 [32]
00000000: 091e 893f 1bd0 803f 52d6 8a3f 2c89 7d3f
00000010: 523d 873f 7933 823f 568d 753f 1008 7a3f
00000020: 4177 753f 6829 883f f905 8f3f 4992 833f
00000030: 2426 7b3f 4015 853f 5bbf 733f 2e5f 8d3f
00000040: 70f3 6a3f 6a70 853f 36f3 943f 35e8 803f
00000050: b8e0 743f 60eb 7e3f a6de 703f 5e6a 763f
00000060: 3064 7a3f 3b7c 853f c60c 773f f265 813f
00000070: 1ec1 883f efa3 703f fde8 6d3f 816c 823f
1.0712291 1.0063509 1.0846655 0.9903743 1.0565588 1.0171958 0.95918787 0.9766855
0.9588509 1.0637636 1.1173698 1.0279018 0.9810507 1.039711 0.9521386 1.1044672
0.91777706 1.0424931 1.1636722 1.0070864 0.95655394 0.99577904 0.94089735 0.96256053
0.97809124 1.0428537 0.96503866 1.0109236 1.0683935 0.9400014 0.92933637 1.0189363

2.bias f4 [32]
00000000: 4ccf 02bc 7783 653c 07c9 a13c 3e2f 2bbd
00000010: cb86 f3bc 3a2e 25bc db80 aa3c 52bd 4abc
00000020: 8d52 38bc 9f25 9d3b c723 733d a16d 7cbc
00000030: f6e4 b9bc 9fd7 453b df61 10bc 66cd 69bb
00000040: e2dd b9bc b7c0 35bc efed afbb 3d77 843a
00000050: 3aa7 22bd c1d5 62bd e847 a9bc ed1d dabc
00000060: 30b9 33bc 33e8 d7bc b9e0 5fbb 26ea b9bc
00000070: 7f8a f2bc 2c70 60bd 1386 35bd d2df 85bc
-0.007983994 0.014008394 0.019749178 -0.0417931 -0.02972736 -0.010081822 0.020813396 -0.012374239
-0.01125015 0.0047957445 0.05936029 -0.015406997 -0.022692185 0.0030188335 -0.008812397 -0.0035675406
-0.02268881 -0.01109331 -0.00536894 0.0010106337 -0.03971026 -0.055379633 -0.02066417 -0.026625598
-0.010969445 -0.026355838 -0.0034161045 -0.022694658 -0.029607056 -0.054794475 -0.044317316 -0.016342077

4.weight f4 [32, 32]
00000000: 5394 233d 640b debd abaf 01be 091e f7bd
00000010: 9d80 64bd 3a78 34be d31e 21be 6aac fb3d
00000020: e91a 8cbc af74 a6bd a2a0 373c 4890 893c
00000030: c868 12bd 41e4 1cbe 10de 943c d551 383e
00000040: 6d16 11be 3ceb 01be f0b9 293e 96f1 2c3e
00000050: 9472 773d c0c3 91bd 5824 8fbd b769 75bd
00000060: bb27 173e 9aea 0d3d 4bd2 283e e57d 0bbc
00000070: fd06 293e 0a0f 27be 45c5 ecbc 30a5 013e
00000080: bcbc 80be e478 dbbd e880 80be ab91 2d3d
00000090: f050 fabd 1cee 51bd 3d37 0b3d 37e4 093e
000000a0: 206f 1abe 1db8 ad3d 1f95 83be 1b76 3bbe
000000b0: 44a4 18bc 33fe 1bbe 4b84 283c 69d1 dabd
000000c0: b00f 7e3d d4e2 e5bd 7a71 a53e 6dd5 b23d
000000d0: be74 dbbc 164f ccbd 0722 77bc f3c5 253e
000000e0: e0a1 3e3e 140f 40be ee29 1f3e e7b1 35bd
000000f0: ef75 0a3e c573 043e 989d 70bd dddd d93d
00000100: a3e2 243e 7f57 163e ab45 053d bc65 80bd
00000110: c338 7ebd 5566 84bd a333 6e3b 6657 0b3e
00000120: 0026 87bd 3de7 083e 3e6a 193e 00ea 87bc
00000130: f7b4 f6bc b23b 713d 03f6 123d 1ae7 52be
00000140: 3bc2 4fbc 7dfb 923d 337d 62be f075 093e
00000150: 3a5e 0abe a8dd 463e 0b3a 803c f325 87bc
00000160: cf79 b83c 1461 6d3e 6a9d 9dbd 066b a2bc
00000170: a0c6 37be 8b94 0fbe 624a 34bc 1b60 61bd
00000180: 1403 e6bd 7669 69bc 8872 eebd 087d 113b
00000190: 623c 14be c5cd cabc c365 f7bd 22bf f53d
000001a0: 8cd6 ca3d 2d90 9f3d 0d68 75be 1885 2bbe
000001b0: f43e 06be b9ec 4cbe 8377 b33d c1d8 debd
000001c0: dc09 eb3d 51b6 ad3c bd89 523e 0a81 4ebd
000001d0: 6b98 cf3d 9196 0ebd 7d70 65bc ea48 063e
000001e0: 19c6 24bc b1df 1cbe 0fd9 b6bd 0dd9 a83c
000001f0: 2743 9a3d 63a8 3b3e 17ac 373e 00e5 503e
00000200: fcda c5bc 0be6 b6bd aab0 983c c627 01bd
00000210: 1f20 c83c d030 42bd 135b 883d c1ca fd3d
00000220: ba1c 0e3e 4a37 0c3d 4fe9 7ebd 5ca8 2abe
00000230: 0cca dfbc 1fac 4ebe af5c fc3d 38a7 4abc
00000240: fd2c 6bbc c9c4 aabd 8490 1e3d f2cf 913d
00000250: b721 923c 7860 313d e391 98bd 15bd e23d
00000260: cf41 28bd 9f3d 55bd 84ed b0bd 9e9b d5bd
00000270: 26b4 ee3d cb56 fc3b 4876 2dbd fd58 adbd
00000280: ca72 b13d f4dc 3a3e 1191 bebb 86e2 123e
00000290: 6397 75bd e821 083e a89e 483e 706d ddbc
000002a0: e968 98bb d688 2d3e 15ca 843d 87b8 d33d
000002b0: 9b43 503e ff7c 673e 0e2a f7bc a63f e9bd
000002c0: ab49 a93d b71f 1ebd 5e8d 6abe e89f 1c3e
000002d0: 1e9a 07be cdbc 343e aa8e dfbd 5971 e33c
000002e0: 1202 23be 4590 103e 2550 97bc dcf8 af3d
000002f0: e9ee efbd dc46 26be b57d e2bc 4935 18be
00000300: bca5 463c d513 7ebd 4c50 923d d308 7abd
00000310: 0088 bd3d 5788 14be 7563 96bc 8cd4 813c
00000320: b2c1 163d e4f7 92bd b118 68bd c5d7 183e
00000330: f4a6 623d b56a 843d 6065 09be 537b c13d
00000340: f25b 913d 7255 96bd ce2c 67bd 809a fdbb
00000350: 166e e13d f48b 1dbe 6999 c83d 0c55 dd3d
00000360: 1d5b 0a3e 889a 1cbe c62b d5bc 13d3 d6bc
00000370: 47bc bc3d 0eb2 843d f891 1fbd 5527 f13d
00000380: 0857 153e edff 30bb 6eec 5b3d b216 eebb
00000390: 2cd9 3b3e d7c6 83bd 2323 d83d 92bf 5bbc
000003a0: 27fb 1f3e 77d9 533c f5ed febc 01a2 543e
000003b0: 59fc 2c3d c7ff 8c3d 4f0f abbd 4b4b ec3c
000003c0: fa43 90bd 2b83 d63d 9214 d6bd a542 843d
000003d0: f5ce afbd fa18 18be 0962 da3d 261a 7cbd
000003e0: 6a25 e03d e2a6 65bd e583 d63c 651a cabd
000003f0: e2be 27bc 7746 d43d 5f7e f9bd ddd7 193c
0.039936375 -0.10842016 -0.12664668 -0.120662756 -0.055786718 -0.17623988 -0.15734415 0.12288745
-0.017102676 -0.081277244 0.011207731 0.016792431 -0.03574446 -0.15321447 0.018172294 0.17999966
-0.14168711 -0.12687391 0.16574836 0.16889033 0.060412005 -0.071174145 -0.06989354 -0.05991527
0.1476125 0.03464756 0.1648647 -0.008513902 0.16506572 -0.1631433 -0.02890266 0.1266067
-0.25143993 -0.107164174 -0.25098348 0.042375248 -0.12222469 -0.05125247 0.033988226 0.13465963
-0.15081453 0.084823824 -0.25699708 -0.18306772 -0.009316508 -0.15233688 0.010285447 -0.10684473
0.06202668 -0.11224905 0.32313138 0.08732114 -0.026789065 -0.09976022 -0.015083796 0.16188793
0.18616438 -0.18755752 0.15543339 -0.044359114 0.1352155 0.12934788 -0.058744043 0.1063802
0.1610208 0.14681815 0.032537144 -0.06269404 -0.06206585 -0.06464831 0.0036346696 0.13607559
-0.06599045 0.1336946 0.14981934 -0.016591072 -0.030115588 0.05889482 0.035879146 -0.20595971
-0.0126805855 0.07176874 -0.22118072 0.13423896 -0.13512507 0.19420493 0.015652677 -0.016497588
0.02251902 0.23181564 -0.0769604 -0.019826423 -0.17946863 -0.14021508 -0.011004062 -0.055023294
-0.11231056 -0.014246335 -0.11642939 0.0022199769 -0.14476159 -0.024756322 -0.120799564 0.11999346
0.09904203 0.07791171 -0.23965473 -0.1674999 -0.13109952 -0.20012178 0.087630294 -0.10881186
0.1147649 0.0212051 0.20560355 -0.05041603 0.10136493 -0.03481156 -0.01400387 0.13113752
-0.010056996 -0.15319706 -0.089281194 0.02061131 0.075323395 0.18325953 0.17936741 0.20399857
-0.024152271 -0.08930596 0.018638927 -0.03153207 0.024429379 -0.047409832 0.06657996 0.12392188
0.13878146 0.034232415 -0.06223422 -0.16665787 -0.027318023 -0.20182846 0.123223655 -0.01236897
-0.014353988 -0.08338315 0.03871204 0.071197405 0.017838342 0.04330489 -0.07449701 0.11071221
-0.041078385 -0.05206072 -0.086390525 -0.10430072 0.11655454 0.007700776 -0.04234913 -0.08464239
0.086644724 0.1824835 -0.005815633 0.14344224 -0.059958827 0.13294184 0.19591773 -0.027029723
-0.004651178 0.1694673 0.064838566 0.1033793 0.2033829 0.22606276 -0.03017142 -0.11389093
0.08266004 -0.038604464 -0.2290549 0.15295374 -0.13242385 0.17650147 -0.10915883 0.02776401
-0.15918759 0.14117534 -0.018470833 0.08592388 -0.1171549 -0.16237968 -0.027647832 -0.14864077
0.012124475 -0.062030632 0.07144222 -0.06104357 0.092544556 -0.14505135 -0.018357972 0.01584842
0.036805816 -0.07176188 -0.056664173 0.1492606 0.055335 0.06465665 -0.13417578 0.0944735
0.07097615 -0.07340516 -0.056439213 -0.007739365 0.11007325 -0.15385419 0.09794886 0.10807237
0.1351132 -0.15293324 -0.02602185 -0.026223695 0.092155986 0.06479274 -0.038957566 0.1177508
0.14583981 -0.0027008012 0.053692274 -0.007265889 0.18344563 -0.0643441 0.10553577 -0.013412373
0.15623151 0.012930266 -0.031119326 0.20764925 0.042232845 0.06884723 -0.08352529 0.028844496
-0.070442155 0.10474237 -0.10453142 0.06458024 -0.08584396 -0.14853278 0.1066323 -0.061548375
0.10944636 -0.056067355 0.02618594 -0.098683156 -0.010238381 0.103650026 -0.121823065 0.009389845

4.bias f4 [32]
00000000: 9421 913d a5d8 1cbe e5cf 213e ace0 ee3d
00000010: c408 19be 8d8d 9cbd 7507 cb3c 6351 95bd
00000020: e09d 14be 27b6 9ebd fab9 b6bd 97de 643c
00000030: 0c15 29bd 0038 333e c726 973d 0973 ecbd
00000040: 7015 fa3d 9798 1e3e 4aa0 de3d cf74 0abe
00000050: cf16 183d 22f3 8f3d 5461 a6bc f4d2 c43d
00000060: 31bc c1bd 7620 813c a063 6ebb 3e9e e2bd
00000070: ea5c 0f3d 808c 56bd 5d2a ec3d b852 cdbd
0.07086483 -0.15317018 0.15801962 0.116639465 -0.1494475 -0.07644186 0.02478383 -0.07290914
-0.1451335 -0.077495866 -0.08922191 0.013969085 -0.041279837 0.17501831 0.07380443 -0.11545379
0.1221112 0.15487896 0.108704165 -0.13521121 0.037131127 0.07028796 -0.020310082 0.096105486
-0.09459723 0.015762549 -0.00363753 -0.110653386 0.03500072 -0.052380085 0.11531518 -0.10025543

5.weight f4 [32]
00000000: e353 a23f 724f b83f 2261 a83f e6fe aa3f
00000010: dd72 8a3f 7f58 b03f b858 853f 056f 803f
00000020: 0393 703f 4d08 903f 67d7 973f 2533 953f
00000030: f528 9e3f af72 943f e0aa a43f 3d17 853f
00000040: deca 843f e5a3 993f 4b4e 913f 47db b23f
00000050: 3777 963f 1e49 963f b537 973f d44b 903f
00000060: b5fb 8b3f 00ab 993f b1b2 863f fc17 863f
00000070: 8c17 a93f 876a 743f e8fc 863f f1fc a23f
1.268185 1.4399245 1.3154643 1.3359039 1.0816303 1.3777007 1.04177 1.003388
0.9397432 1.1252533 1.186261 1.1656233 1.2356249 1.1597499 1.2864647 1.0397717
1.037441 1.2003142 1.1352018 1.3973168 1.1755131 1.1741064 1.1813875 1.1273141
1.093619 1.200531 1.0523282 1.047607 1.3210311 0.9547505 1.0545931 1.2733442

5.bias f4 [32]
00000000: aefb 683e 824a 923e 781d 523e 0b39 473e
00000010: 1326 9a3c 9e04 b83d 0201 343c fea6 babb
00000020: 14da 7abd ab4e 463d 8b83 a13d 88e0 593d
00000030: 4221 3c3e f51f ce3c c52c 123e dcc7 573c
00000040: 0911 b73c 940e 853d fe49 713d b913 9e3e
00000050: 42b3 6e3d 6f78 213e f561 b33d dcf5 123d
00000060: b17a 8c3d 3c7d 803d fe73 753d 3518 033d
00000070: 1356 693e 1c25 7fbc ba11 e0bb 63c5 693e
0.22752258 0.2857247 0.20519054 0.19455354 0.018816983 0.08985256 0.010986568 -0.0056961766
-0.06124313 0.048414867 0.07886418 0.053192645 0.18372062 0.025161723 0.1427489 0.013170209
0.02234699 0.06496921 0.058908455 0.30874422 0.058276422 0.15768598 0.08758918 0.035879
0.06859339 0.062738866 0.059925072 0.032005507 0.22786741 -0.015572812 -0.0068380507 0.22829203

7.weight f4 [1, 32]
00000000: 2ccd b1be 5b45 c8be 5787 993e a994 dbbe
00000010: 7a5e 61be a6d9 f53e 18f9 a1bd cecb 933c
00000020: aee2 c53d 96a6 063e 15bd a13e ab2d 8d3e
00000030: bb4a a9be 1f9c a83e 05a3 813e 7345 2c3e
00000040: 49ca 573e 0c19 973e 3eea 993e 4d6e b3be
00000050: 4a86 893e 2db7 8dbe 605e 7b3e 81f0 553e
00000060: d45b 103e fcd7 a23e 96e9 253e dad5 503d
00000070: fb6e dcbe 6f67 00bc a920 ba3d ec10 a4be
-0.34726846 -0.39115414 0.2998607 -0.42886856 -0.22008696 0.48017615 -0.07908839 0.018041518
0.09662376 0.13149485 0.3158957 0.27573904 -0.33064827 0.3293161 0.25319687 0.16823368
0.2107326 0.29511297 0.30061525 -0.3504509 0.26860267 -0.27678815 0.2454772 0.20892526
0.1409753 0.31805408 0.16202387 0.050985195 -0.4305342 -0.0078371605 0.09088261 -0.3204416
