wakeword_models/hey_zelda/hey_Zelda_med_multi_phrase.onnx (onnx, 205430 bytes, 9 tensors)

layer1.weight f4 [32, 1536]
0	0xbb38ffb4	-0.0028228583
1	0x3cc8e81a	0.024524737
2	0x3a2dd9d8	0.00066318875
3	0x3ce5a7ac	0.028034054
4	0xbbe72cce	-0.0070549017
5	0x3add5642	0.0016886669
6	0x3c3b3a1a	0.011427427
7	0xbb7e7f72	-0.0038833288
8	0x3db273fd	0.08713529
9	0xbb61d73a	-0.003446056
10	0xbcc9300d	-0.024559045
11	0x3d03cbe5	0.03217687
12	0x3ce1493a	0.027500737
13	0x3c0510be	0.008121667
14	0x3ce5fb99	0.028074073
15	0x3ce3ae52	0.027793083
16	0xbbd6a8f8	-0.0065509044
17	0xbcefb7a0	-0.029262364
18	0x3c44a426	0.012002027
19	0x3c2a1e24	0.010383163
20	0x3c1b8be3	0.009493801
21	0x3cc40073	0.023925995
22	0xbc6cf78a	-0.014463315
23	0xbcf6e4ae	-0.03013834
24	0x3cda15b0	0.02662167
25	0xbc59cdc1	-0.013293684
26	0xbcec14fa	-0.028818596
27	0x3d2aa917	0.041665163
28	0x3c30106c	0.010746103
29	0x3ba1e861	0.004941032
30	0xbcd2f8e2	-0.025753442
31	0x3cad0bda	0.021123815
32	0xbca1c02d	-0.019744957
33	0xbd3cd04a	-0.046097077
34	0xbc62196e	-0.013800008
35	0xba067f69	-0.000513068
36	0x3cf10eaf	0.029425947
37	0x3c9c0501	0.019045355
38	0x3cf74506	0.03018428
39	0xbc0a799b	-0.008451845
40	0xbcfce974	-0.030873038
41	0x3d312d07	0.043255832
42	0x3baa54d3	0.0051981
43	0xb939ce30	-0.00017719786
44	0xbc288596	-0.010285756
45	0x3d0c5753	0.034262966
46	0xbb05be36	-0.0020407564
47	0x3d590295	0.052980978
48	0x3c286af4	0.010279406
49	0xbd424905	-0.047432918
50	0xbb6604d1	-0.0035098086
51	0xbc799a0f	-0.015234484
52	0x3cedfcd8	0.02905123
53	0xbc3aa80a	-0.011392603
54	0xbce6115c	-0.02808445
55	0xbd2c64e3	-0.0420884
56	0xbcefe3f8	-0.029283509
57	0x3b9d7428	0.0048051067
58	0xbc1289ae	-0.008943958
59	0x3cc7767b	0.024348488
60	0x3c91802d	0.017761314
61	0x3cbd0e1b	0.023078015
62	0x3bf39871	0.007433944
63	0x3ced143c	0.028940313
64	0x3cc93970	0.024563521
65	0xbc41d12c	-0.011829656
66	0x3bac0cf3	0.005250567
67	0x3aa0efee	0.0012278536
68	0x3bf0ca45	0.007348331
69	0x3bc4c7cf	0.0060052644
70	0xbd879cc1	-0.06621695
71	0xbc0b1ba6	-0.008490479
72	0xbcaf9ac3	-0.0214361
73	0xbd0b0206	-0.033937477
74	0x3c7c914f	0.015415504
75	0xbc1f6e57	-0.009730897
76	0xbb0bc929	-0.0021329618
77	0xbcddf973	-0.027096486
78	0x3c542027	0.012947119
79	0xbcdd956b	-0.027048787
80	0xbae98f2e	-0.001781916
81	0xbbef1a38	-0.0072968267
82	0xbcb66588	-0.02226521
83	0xbc581dcb	-0.013190697
84	0x3c8d2461	0.01722926
85	0x3d6cd5f6	0.057821237
86	0x3d24d3a5	0.040240902
87	0x3cc99510	0.024607211
88	0xbcc96036	-0.02458201
89	0x3ca71bf4	0.020399071
90	0xbc5f503d	-0.01362997
91	0x3c6bf19f	0.014400869
92	0xbc261ca6	-0.010138666
93	0x3b3d59b7	0.0028892586
94	0x3cd521f9	0.026017176
95	0x3cd40f52	0.025886212
96	0xbc87c13d	-0.016571635
97	0x3bb3aeee	0.0054834997
98	0x3d135934	0.035973743
99	0x3c8c6bbe	0.01714122
100	0xbb968854	-0.0045938883
101	0x3c6a509b	0.014301444
102	0x3d19f305	0.037585277
103	0x3c70c390	0.014695063
104	0x3d9fc204	0.078006774
105	0xbc090381	-0.008362652
106	0x3c52bae6	0.012861943
107	0x3cc5c554	0.024141945
108	0x3d16ca4a	0.03681401
109	0x3d288053	0.041138005
110	0x3ba92a91	0.005162545
111	0x3ceada4b	0.028668543
112	0x39054b33	0.00012711882
113	0xbd3711eb	-0.044694822
114	0x3c624701	0.013810874
115	0x3b6f1589	0.0036481342
116	0x3d16c6a4	0.036810532
117	0xbc4fe277	-0.012688271
118	0xbc9d94c3	-0.019235974
119	0xbca67174	-0.02031777
120	0xbb78cb07	-0.003796281
121	0x3c8a6cc1	0.016897561
122	0xbc5904d1	-0.013245777
123	0x3c3ff0fb	0.011715169
124	0x3c8cdadc	0.017194204
125	0x3b7e1054	0.0038767057
126	0xbc78d94a	-0.0151885245
127	0x3c8c92ab	0.01715978
128	0xbc9b2cde	-0.018942293
129	0x3c2f4464	0.010697458
130	0xbc3fd4b7	-0.01170843
131	0xbc3567bc	-0.0110720955
132	0x3d2831ab	0.041062992
133	0x3cbcaf5e	0.02303284
134	0x3d107dec	0.03527634
135	0x3a870429	0.0010300922
136	0xbb1e3f6b	-0.0024146687
137	0xba9097bd	-0.001103155
138	0x3c640431	0.013917015
139	0xbcffb643	-0.031214839
140	0xbc03c604	-0.008042816
141	0xbccb4220	-0.024811804
142	0xbbd8ab01	-0.006612182
143	0x3d0d895d	0.034554828
144	0x3c8aea24	0.01695735
145	0xbd5bc7c8	-0.053657323
146	0xbc9ccbd8	-0.019140169
147	0xbc526a80	-0.012842774
148	0x3cd5c9aa	0.026097137
149	0x3c7301b9	0.014831954
150	0x3c5ebe93	0.013595241
151	0xbce68377	-0.02813886
152	0xbca8e5f2	-0.020617459
153	0x3c594102	0.013260128
154	0xbb68b3b5	-0.0035507504
155	0x3b20868a	0.0024494254
156	0xbb9c6b02	-0.0047734985
157	0x3caae4c8	0.020861045
158	0xbc06c5e7	-0.0082258945
159	0xbd101b02	-0.035182007
160	0x3acaf3f3	0.001548408
161	0xbc259d47	-0.010108299
162	0xbca0237d	-0.019548172
163	0xbb2d303f	-0.0026426462
164	0x3c367fb9	0.01113885
165	0xbcb10b8e	-0.021611955
166	0x3d330231	0.04370326
167	0x3c0997a7	0.008397973
168	0xbc46fc60	-0.012145132
169	0x3ae32cbd	0.0017332059
170	0xbc888c67	-0.016668512
171	0xbcd3e79a	-0.025867272
172	0xbc7166ab	-0.014733951
173	0x3c834b01	0.016026976
174	0xbcee19ff	-0.02906513
175	0x3b4340e4	0.0029793316
176	0x3bd3f109	0.0064679426
177	0x3d0738b7	0.033013072
178	0x3c141de0	0.009040326
179	0xbc20de8a	-0.009818682
180	0xbcc8a77d	-0.024493927
181	0x3d3419a9	0.043969784
182	0x3c973220	0.018456519
183	0x3b9ff43a	0.004881409
184	0xbc075936	-0.008261016
185	0x3b8a8bc1	0.0042280857
186	0xbcfa36de	-0.03054374
187	0x3c8448e4	0.016148038
188	0x39a6bbb1	0.00031801828
189	0xbcc45398	-0.023965642
190	0xbb8a5640	-0.0042217076
191	0x3c668c03	0.014071467
192	0xbd2cc5c0	-0.042180777
193	0x3c7fd9ad	0.015615863
194	0x3b9ceb99	0.0047888276
195	0x3d120f7b	0.035659295
196	0xbae10e2d	-0.0017170362
197	0x3c0a34ce	0.008435441
198	0x3b83a26f	0.0040171663
199	0xbc5d12e8	-0.013493277
200	0x3d8905b3	0.0669054
201	0xbc7201b3	-0.014770913
202	0xbc97a160	-0.018509567
203	0xbbcc0176	-0.00622576
204	0x3d2adb90	0.041713297
205	0x3d0a6c30	0.033794582
206	0x3cac1e7b	0.021010628
207	0x3d5a0b16	0.05323323
208	0x3c09ad52	0.008403139
209	0xbd4e8b8b	-0.050426047
210	0x3caebd36	0.021330457
211	0xbc9b4150	-0.018952042
212	0x3c62a767	0.013833857
213	0xbc0476f3	-0.008085
214	0xbab6ec9f	-0.0013956017
215	0xbc51d960	-0.012808174
216	0x3baca602	0.005268813
217	0xbb53ee69	-0.0032338148
218	0xbceb81bb	-0.028748384
219	0x3caebc05	0.02132989
220	0xbc3f1a45	-0.011663978
221	0xbb3aa0ae	-0.002847712
222	0xbc9a8eab	-0.018866858
223	0x3b60c855	0.0034299095
224	0x3b1314ce	0.002244282
225	0xbc050cc1	-0.008120717
226	0x3afcd1a3	0.0019288551
227	0x3d24f1db	0.040269714
228	0x3c8fe6f5	0.017566184
229	0x3cdcb6e2	0.026942674
230	0xbc93591a	-0.017986823
231	0x3cb4106d	0.021980489
232	0xbcd38651	-0.025820883
233	0x3d5572ee	0.05211156
234	0xbc64a968	-0.013956405
235	0xbcd49b20	-0.025952876
236	0x3c3563dd	0.011071173
237	0x3bc869f7	0.0061161476
238	0x3c294f3e	0.010333834
239	0x3cbc5386	0.022989046
240	0x3d551382	0.052020557
241	0xbd9399f9	-0.07207102
242	0xbb73f974	-0.0037227543
243	0x3c64dca2	0.013968619
244	0x3ccc3234	0.024926282
245	0x39bf4e58	0.0003648873
246	0xbcbfca8f	-0.023412017
247	0xbc842adc	-0.016133718
248	0x39ab9969	0.0003272996
249	0x3cfbe25a	0.030747581
250	0xbc9436a9	-0.01809247
251	0x3c5962e9	0.013268211
252	0x3b262141	0.002534941
253	0xbcaaa20b	-0.020829221
254	0x3cead3e0	0.028665483
255	0x3c02a9ca	0.007975051

layer1.bias f4 [32]
0	0x3ad8d615	0.0016543294
1	0xbc9eccb3	-0.019384718
2	0x3aeb71f5	0.0017963039
3	0x3ccb65fa	0.0248289
4	0xbcb48de5	-0.022040317
5	0x3cc7efb7	0.024406297
6	0x3b9dbc2f	0.004813693
7	0x3c66d19e	0.014088063
8	0xbb1c7c95	-0.0023877968
9	0x3c1d0a97	0.009585044
10	0x398ef414	0.00027266203
11	0x3cba1e08	0.022719398
12	0x3d010908	0.031502753
13	0xbc62f0e7	-0.013851381
14	0x3c323d51	0.010878877
15	0x3c298b95	0.01034822
16	0xbbc067b8	-0.0058717392
17	0x3cc00fd1	0.023445042
18	0x3c6876ac	0.01418845
19	0x3d0bd0d5	0.034134705
20	0x3b290b92	0.002579425
21	0xbbc62592	-0.006046959
22	0x3ccd6f0e	0.025077369
23	0x3bf98e30	0.007615827
24	0xbbcdc45d	-0.006279512
25	0xbcd585ef	-0.026064841
26	0x3c5c1eac	0.013435047
27	0xbc34875c	-0.0110186
28	0xbc072e96	-0.008250853
29	0x3c9f0344	0.019410737
30	0x3addb96e	0.0016916224
31	0x3d130291	0.03589112

layernorm1.weight f4 [32]
0	0x3f84be84	1.0370641
1	0x3f7c0bc3	0.98455447
2	0x3f6eab0d	0.9322975
3	0x3f85fb1f	1.0467261
4	0x3f87d1d1	1.0610906
5	0x3f747271	0.95487124
6	0x3f89f4d1	1.0777837
7	0x3f81e680	1.0148468
8	0x3f832759	1.0246383
9	0x3f7ee8fc	0.99574256
10	0x3f86b138	1.0522833
11	0x3f625a02	0.8841859
12	0x3f77f05e	0.96851146
13	0x3f88dc4f	1.0692233
14	0x3f7cc743	0.9874155
15	0x3f8cccbd	1.0999981
16	0x3f80e16e	1.0068796
17	0x3f8b53ed	1.0884987
18	0x3f89e0a2	1.0771677
19	0x3f7e95b4	0.9944718
20	0x3f835c05	1.0262457
21	0x3f72a2b9	0.94779545
22	0x3f7dfa0d	0.9920967
23	0x3f8f9bcc	1.121942
24	0x3f7ef364	0.99590135
25	0x3f7cce17	0.9875197
26	0x3f853f9d	1.0410038
27	0x3f821dd3	1.0165352
28	0x3f6f3aef	0.934493
29	0x3f80e5cf	1.0070132
30	0x3f76b01f	0.9636249
31	0x3f80b244	1.0054402

layernorm1.bias f4 [32]
0	0x3cae9e80	0.021315813
1	0xbc924d72	-0.017859194
2	0xbcbb1480	-0.022836924
3	0x38c32a5e	9.306216e-05
4	0xbc2ee776	-0.010675302
5	0x3c482c8a	0.01221765
6	0xbb0d918b	-0.0021601643
7	0xbc56be50	-0.0131068975
8	0xbd058280	-0.032595158
9	0x3d24ccbe	0.04023432
10	0xbd003fb2	-0.031310745
11	0xbd7db517	-0.06194028
12	0xbcdd7658	-0.02703397
13	0x3d0bf462	0.03416861
14	0x3cd4bc58	0.025968716
15	0x3d0bef4d	0.034163762
16	0x3c8c5508	0.01713039
17	0xbd75c4e0	-0.060002208
18	0x3d00de96	0.031462274
19	0x3cb7098f	0.022343425
20	0x3c822f96	0.015891831
21	0xbc908c76	-0.017645102
22	0x3d0f3b1a	0.034968473
23	0xbcf725b8	-0.030169353
24	0xbca296ff	-0.019847391
25	0x3b260c9f	0.0025337113
26	0x3c7e5fc1	0.015525759
27	0xbd3207e0	-0.04346454
28	0xbd33444f	-0.043766316
29	0x3d1419f9	0.036157582
30	0xba28af23	-0.0006434789
31	0x3c1d7c42	0.009612145

blocks.0.fcn_layer.weight f4 [32, 32]
0	0xbda79169	-0.08182032
1	0x3e0e8f0e	0.13921759
2	0x3d46078b	0.048347037
3	0x3e4747df	0.1946101
4	0x3d93a39d	0.07208941
5	0xbd82982d	-0.063766815
6	0x3dbcb1ee	0.09213625
7	0x3da4cf90	0.08047402
8	0x3e0f4ead	0.13994856
9	0x3dba3ce7	0.090936475
10	0x3e5668b8	0.20938385
11	0x3df7b273	0.12094583
12	0xbcbff40f	-0.023431806
13	0x3d29b3a0	0.04143107
14	0x3d12b6db	0.035818916
15	0x3e790035	0.24316485
16	0x3d795632	0.060873218
17	0xbe27df0d	-0.16393681
18	0xbe774c6c	-0.24150246
19	0xbb3e33e6	-0.0029022633
20	0xbe3f6a50	-0.18692899
21	0x3dfc6ca7	0.12325411
22	0xbc775a1e	-0.015097169
23	0xbe0d325f	-0.13788746
24	0x3ce30358	0.027711555
25	0xbc45f736	-0.012082865
26	0xbc6d0e1c	-0.014468696
27	0x3e0b0f20	0.13579988
28	0x3d6bdb3d	0.05758213
29	0xbcd6f01d	-0.026237542
30	0xbb48f390	-0.0030662753
31	0x3da42e1b	0.080166064
32	0xbc6b5909	-0.014364489
33	0xbe29d689	-0.16585745
34	0x3c86c990	0.016453534
35	0xbd868035	-0.06567422
36	0xbe41064d	-0.1885006
37	0xbe08f75f	-0.13375615
38	0xbd8bea35	-0.06831781
39	0xbda80f9f	-0.082061045
40	0xbe57c583	-0.21071438
41	0xbe201e51	-0.15636565
42	0xbe351519	-0.1768383
43	0x3daa361d	0.083111025
44	0x3c87959a	0.016550828
45	0xbdc9f9af	-0.098620765
46	0x3e140288	0.1445409
47	0xbe43d095	-0.19122536
48	0xbc4dab06	-0.012552982
49	0x3e02773f	0.12740801
50	0x3e07c602	0.13259128
51	0x3e0d0fd1	0.13775565
52	0x3dbb50b2	0.09146251
53	0xbcb0aaf9	-0.021565901
54	0xbddb6920	-0.107134104
55	0x3e38b71c	0.180386
56	0x3c8633ba	0.016382087
57	0x3cb3ba1c	0.02193933
58	0xbe480b2d	-0.19535513
59	0xbdbeb643	-0.093121074
60	0x3e249457	0.16072212
61	0xbd0999b4	-0.03359385
62	0x3d566b77	0.05234858
63	0x3e528276	0.2055758
64	0x3e31bedb	0.17357962
65	0xbd84686b	-0.06465229
66	0xbe211421	-0.15730335
67	0xbe03457a	-0.12819472
68	0xbe2e839e	-0.17042395
69	0xbd9d9676	-0.07694714
70	0xbe649e2c	-0.22325963
71	0x3da50aaf	0.08058678
72	0x3bdb3b15	0.0066903927
73	0x3d708ed1	0.05872995
74	0xbe221e77	-0.15831934
75	0x3e23f766	0.16012344
76	0x3c8a5ffe	0.016891476
77	0xbe008080	-0.12549019
78	0x3dec597c	0.11540505
79	0xbcfd8a1e	-0.030949648
80	0x3d8c5944	0.068529636
81	0x3dbbebe6	0.091758534
82	0x3caff3cb	0.021478554
83	0xbaab734b	-0.0013080625
84	0x3c97ca3c	0.01852905
85	0x3d06bc81	0.032894615
86	0x3d0425fb	0.032262783
87	0x3e66e6fa	0.22549048
88	0xbda61147	-0.08108764
89	0xbcef6490	-0.029222757
90	0xbe2f52da	-0.17121449
91	0xbdeb68e4	-0.11494616
92	0xbdf854f7	-0.12125581
93	0x3e1bbc9d	0.15208669
94	0xbdf8a026	-0.12139921
95	0x3c2a74c0	0.010403812
96	0xbd379657	-0.04482111
97	0xbccfe229	-0.025376396
98	0x3d0edf5c	0.03488098
99	0x3e410fc9	0.18853678
100	0xbd5d927a	-0.05409477
101	0x3cbc49b1	0.022984358
102	0x3df0bee0	0.117551565
103	0xbd5ae4b3	-0.05344076
104	0x3d860865	0.0654457
105	0x3bd933c8	0.0066284873
106	0x3e14a164	0.1451469
107	0x3e135187	0.14386569
108	0xbcc39251	-0.02387348
109	0xbc4c2f19	-0.012462401
110	0xbceecbea	-0.029149968
111	0x3d024a02	0.03180886
112	0xbddd3c9d	-0.10802577
113	0xbe1f317a	-0.15546218
114	0x3c8b83e8	0.017030671
115	0x3af2911d	0.0018506382
116	0x3dbe824f	0.09302198
117	0x3d005a25	0.03133597
118	0xbe217268	-0.15766299
119	0xbe25eb1d	-0.1620297
120	0x3dc48a28	0.09596664
121	0x3d5b92aa	0.053606667
122	0xbd21dc7e	-0.03951692
123	0x3d7a13a5	0.06105389
124	0xbd0a98da	-0.033837177
125	0xbccda886	-0.025104772
126	0xbd19aeeb	-0.03752033
127	0xbe365d7e	-0.17809102
128	0x3bb0630d	0.0053829015
129	0x3d048cc1	0.032360796
130	0x3dea53c3	0.114417575
131	0x3e357eb0	0.17724109
132	0x3e0fe3d3	0.14051752
133	0xbdae6a08	-0.085163176
134	0x3cb1fac6	0.021726023
135	0x3e0b30d0	0.13592839
136	0x3e67811d	0.22607847
137	0x3e271459	0.16316356
138	0x3d5bee18	0.05369386
139	0x3e3e811b	0.18603937
140	0xbbe33660	-0.0069339722
141	0x3e2b9ad8	0.16758287
142	0x3d53004d	0.05151396
143	0x3e3c74b0	0.18403888
144	0xbdfa2f2c	-0.122160286
145	0xbe157a69	-0.14597477
146	0xbe0e394a	-0.13889042
147	0xbe214a97	-0.1575111
148	0xbd585d4c	-0.05282335
149	0x3e151570	0.14558959
150	0x3cc77889	0.024349468
151	0xbded7126	-0.11593847
152	0xbe15ddd6	-0.14635405
153	0x3e1648e8	0.14676249
154	0x3de0cc9f	0.109765284
155	0x3e383470	0.17988753
156	0xbd08c1c6	-0.03338792
157	0x3e1da663	0.15395503
158	0x3e0a2999	0.13492431
159	0xbe35e171	-0.1776178
160	0xbd1ac08f	-0.037781294
161	0xbd6cad37	-0.057782378
162	0x3e1603b4	0.1464985
163	0x3dfc6262	0.123234525
164	0x3e80cb55	0.2515513
165	0xbc2b79d0	-0.010466054
166	0xbdb8da4c	-0.09026012
167	0x3e5a4ad7	0.21317612
168	0x3db3b7ae	0.087752685
169	0xbc83b2aa	-0.016076405
170	0x3dd2fe01	0.10302354
171	0x3c649da2	0.013953598
172	0x3d843dd3	0.064571045
173	0x3e40e942	0.18838981
174	0x3d658a6d	0.056040216
175	0x3c978926	0.018498015
176	0x3c1ddc34	0.00963502
177	0xbac42302	-0.0014964046
178	0x3ad71d5c	0.0016411948
179	0xbe1cc9cd	-0.15311356
180	0xbda475e9	-0.08030302
181	0x3e0693a5	0.1314226
182	0xbe19907b	-0.14996521
183	0xbddd398a	-0.1080199
184	0xbd7ee32f	-0.062228378
185	0x3d225675	0.039633233
186	0xbd06fbef	-0.032955106
187	0x3e69fb38	0.22849739
188	0x3d9cac78	0.07650083
189	0xbd999ad5	-0.07500235
190	0x3cb79990	0.022412091
191	0xbcd3e828	-0.025867537
192	0xbbd12e86	-0.00638372
193	0x3d9baf55	0.07601801
194	0x3e0e05ec	0.13869447
195	0x3de57431	0.112038024
196	0x3e0fffa1	0.14062358
197	0xbc204c62	-0.009783836
198	0xbd676bf6	-0.056499444
199	0x3daa607a	0.08319183
200	0x3e147f66	0.14501724
201	0xbdd8ab1b	-0.10579511
202	0x3d89c20d	0.067264654
203	0x3d655552	0.05598957
204	0xbc8febfa	-0.017568577
205	0x3ba483ae	0.0050205803
206	0xbe0580d5	-0.13037427
207	0x3d9f9f9d	0.07794116
208	0xbd9ecf67	-0.077544026
209	0xbd8361c1	-0.064151295
210	0x3dd8cfea	0.105865315
211	0xbdd5feef	-0.10449015
212	0x3d45bcfe	0.04827594
213	0xbdf21799	-0.11820907
214	0x3e38ec65	0.18058927
215	0xbd6f3f8d	-0.058410216
216	0x3dd28e7e	0.102810845
217	0x3cf46c2b	0.029836735
218	0xbd0b0e13	-0.03394897
219	0x3dead9a1	0.11467291
220	0x3dbddda2	0.09270789
221	0x3d623a0c	0.05523114
222	0x3d306c70	0.043072164
223	0xbdbe9ede	-0.09307645
224	0xbd799b9c	-0.060939416
225	0x3d2ef022	0.042709477
226	0x3c2d9c8c	0.010596406
227	0x3da74707	0.08167844
228	0x3e12ed71	0.14348389
229	0x3dedf52f	0.11619031
230	0x3e7da8a5	0.24771364
231	0x3d4653a2	0.048419602
232	0xbd53788d	-0.051628638
233	0xbc930b3f	-0.017949698
234	0x3e24c86b	0.16092078
235	0xbd1a6e80	-0.037703037
236	0x3c8f75e0	0.017512262
237	0x3db36ccc	0.08760986
238	0x3d3f5534	0.046712115
239	0x3e716d0b	0.23576753
240	0xbe4ba497	-0.19887005
241	0xbdcb1d01	-0.099176414
242	0xbc7464c6	-0.014916604
243	0xbd4d22fd	-0.050082196
244	0xbdb5e4dd	-0.08881543
245	0xbd65472f	-0.05597609
246	0xbdff6430	-0.12470281
247	0xbd2858ad	-0.041100193
248	0x3dd2264f	0.10261213
249	0x3e0b6676	0.13613304
250	0x3e318b1d	0.17338224
251	0x3db6b612	0.08921446
252	0x3d860669	0.065441914
253	0xbc99d72b	-0.018779358
254	0x3dc4412b	0.09582742
255	0x3bf54395	0.007484863

blocks.0.fcn_layer.bias f4 [32]
0	0xbd8d2940	-0.068926334
1	0x3c78a6ec	0.015176516
2	0x3dd57963	0.10423543
3	0x3dd53aa4	0.104115754
4	0xbd34c1bf	-0.044130083
5	0x3dc168a9	0.094437905
6	0xbdb44393	-0.08801951
7	0xbb4a3701	-0.0030855539
8	0x3d68a00e	0.056793265
9	0xbb33b332	-0.002742004
10	0xbcf694b3	-0.030100202
11	0x3e2b798b	0.16745584
12	0xbd8d3fc2	-0.068969265
13	0x3d2f5e6a	0.04281465
14	0x3c36b2d8	0.011151038
15	0xbc247363	-0.010037276
16	0x3d0156ce	0.031576924
17	0xbe1d917a	-0.15387526
18	0xbc737a19	-0.014860653
19	0xbce49244	-0.027901776
20	0xbe05e9f0	-0.13077521
21	0xbc3ccbcf	-0.011523201
22	0x3dc59cab	0.09649023
23	0x3d592435	0.053013045
24	0x3e33f049	0.1757213
25	0xba3b592c	-0.00071467715
26	0xbe228be9	-0.15873684
27	0xbdd31311	-0.10306371
28	0x3e31628f	0.17322753
29	0xbe12ba45	-0.14328869
30	0xbda33488	-0.07969004
31	0x3da1bb3d	0.07897041

blocks.0.layer_norm.weight f4 [32]
0	0x3fa49a2c	1.285955
1	0x3faed42f	1.3658503
2	0x3fa81894	1.3132501
3	0x3f96e820	1.1789589
4	0x3fa400e2	1.281277
5	0x3f9a3e4d	1.2050263
6	0x3f8eb43d	1.1148754
7	0x3f958db6	1.1683872
8	0x3fa137bc	1.2595134
9	0x3fb333ea	1.4000218
10	0x3fafb2f4	1.3726487
11	0x3facc918	1.3498869
12	0x3f7d7273	0.9900276
13	0x3f935ae0	1.1512108
14	0x3fa10704	1.2580266
15	0x3f91c865	1.138928
16	0x3f98f6bd	1.1950299
17	0x3fa81f26	1.3134506
18	0x3f9aeb51	1.2103063
19	0x3f9adf49	1.2099391
20	0x3f6d8892	0.92786515
21	0x3fadf48f	1.3590258
22	0x3fa370de	1.2768819
23	0x3fa41871	1.2819959
24	0x3fb43982	1.408005
25	0x3fa6f750	1.3044224
26	0x3f9e1cf7	1.2352589
27	0x3fa0796a	1.2537053
28	0x3f958b93	1.168322
29	0x3fa83ede	1.3144186
30	0x3f96b855	1.1775004
31	0x3fadb9b9	1.3572303

blocks.0.layer_norm.bias f4 [32]
0	0x3df48702	0.11939813
1	0x3e92a69f	0.28642747
2	0x3e979649	0.29606846
3	0x3d28085c	0.041023597
4	0x3e2e7dbb	0.1704015
5	0x3da8800b	0.08227547
6	0x3db74170	0.08948028
7	0x3e0a42c6	0.13502035
8	0x3e643a23	0.22287802
9	0x3ea17508	0.315346
10	0x3e8dc13d	0.27686492
11	0x3e8b7256	0.2723567
12	0x3acdf80a	0.001571418
13	0x3d453674	0.048147634
14	0x3e1bc968	0.15213549
15	0x3d51ec0f	0.051250514
16	0x3e2dfdf8	0.16991413
17	0x3e88c011	0.26709035
18	0x3e047433	0.12934951
19	0x3e1e29b8	0.15445602
20	0x3c0e4662	0.008683773
21	0x3e4d17dd	0.20028634
22	0x3e129da4	0.14317948
23	0x3e86c6d8	0.2632358
24	0x3e93b56d	0.28849354
25	0x3ddf0514	0.108896405
26	0x3e2d11a1	0.16901256
27	0x3e590b7e	0.2119579
28	0x3d99be74	0.07507029
29	0x3e2a3012	0.166199
30	0x3e0dd8c4	0.13852221
31	0x3e9113ef	0.2833552

last_layer.weight f4 [1, 32]
0	0x3ec1991a	0.3781212
1	0xbed9c62e	-0.42534012
2	0xbed2e537	-0.41190502
3	0x3e919dc5	0.2844068
4	0x3ee121c0	0.43971062
5	0x3e9d1d24	0.30686295
6	0x3daf2a84	0.08553031
7	0x3e99caed	0.30037633
8	0x3e89015f	0.2675886
9	0xbed9b6c5	-0.42522255
10	0xbef9e927	-0.48810694
11	0xbef3fb8d	-0.47652856
12	0x3d3cfcfb	0.0461397
13	0x3e022cac	0.12712353
14	0x3ec891aa	0.39173633
15	0x3e8e462a	0.27787906
16	0x3ea1f1f9	0.31629923
17	0xbeda5bbe	-0.4264812
18	0x3e738795	0.23782189
19	0x3e3f669b	0.18691485
20	0xbd6551b6	-0.05598613
21	0x3ed236ce	0.41057438
22	0x3e91d188	0.28480172
23	0xbeb45e83	-0.35228357
24	0xbedf2bf9	-0.43588236
25	0x3eca4fd7	0.39514038
26	0x3e9ae5c6	0.30253428
27	0x3eaed8c5	0.34149757
28	0x3e1166e2	0.14199403
29	0x3ee2c5c0	0.44291496
30	0x3e6e4a1e	0.23270461
31	0xbef79344	-0.48354542
