wakeword_models/hey_zelda/hey_Zelda_negative1.onnx (onnx, 205430 bytes, 9 tensors)

layer1.weight f4 [32, 1536]
000000 86 a7 68 3d 2b 46 20 bc 77 3c 6d bc 4f 9d 8f bd
       0.056800388 -0.009782354 -0.014479748 -0.07012426
000010 9d 42 07 3d d0 3d 51 3d a1 42 8f 3c 0c 98 bf bb
       0.03302251 0.05108434 0.017487826 -0.005846983
000020 89 97 a4 bd 0b b8 11 bc ab 89 ae bc de 46 a7 bc
       -0.080367155 -0.008893977 -0.02130588 -0.020419534
000030 0d 80 dc 39 a9 88 3f 3d db f2 8e bc 42 c3 96 bd
       0.00042057075 0.04676119 -0.017449787 -0.07361461
000040 97 fd 97 bd a8 4a de 3d 51 66 c3 3b c1 ca d2 bb
       -0.07421415 0.10854083 0.005963125 -0.0064328616
000050 0a e8 86 3c ce ef ad 3c a2 8e 0c bd 1a 4c ab bc
       0.016468067 0.021232512 -0.034315713 -0.020910311
000060 66 a3 50 bd c1 b1 56 3d 3c 4e 7e bc 1a 51 4e bb
       -0.05093708 0.052415613 -0.015521582 -0.0031481446
000070 64 db 03 bd c9 e9 ad bc 1f 54 c8 3b 6e 1e 44 3c
       -0.03219165 -0.021229642 0.0061135436 0.011970146
000080 1b 53 18 bd ef 4d 20 bd 15 5d 2f bd 27 30 a4 3a
       -0.03718863 -0.039136823 -0.04281338 0.0012526558
000090 a4 d8 bc 3c 6b 44 40 3d 48 14 4a bc b3 a7 2b 3d
       0.023052521 0.04694025 -0.012333937 0.041907977
0000a0 ab 7f 9e 3c 4f 90 da bc b9 34 9e 3c 39 3f 07 bd
       0.019347986 -0.02668014 0.01931225 -0.03301928
0000b0 34 10 51 bd f2 e2 81 bb 5d 35 08 3c 4b 29 bc bc
       -0.051040843 -0.0039638216 0.008313504 -0.022968909
0000c0 57 30 4a bb d0 44 2a 3d dc 64 2a bd aa 80 f0 bc
       -0.0030851567 0.04156953 -0.041600093 -0.029358227
0000d0 f4 43 5f 3c b1 55 4c 3d e0 a1 9e bc f8 f0 7f 3c
       0.013627041 0.04988641 -0.019364297 0.015621416
0000e0 57 d2 03 3d cf 87 c7 bb ae 1c 31 3c 6c 9b 36 bc
       0.032183018 -0.0060891877 0.01081006 -0.011145454
0000f0 24 34 4d 3d aa ee 0e bd f4 e4 5c 3d 57 0b 92 3c
       0.050098553 -0.034895577 0.053929284 0.017827673
000100 b6 ee 09 3d ad f4 3c 3d 31 4b 9e 3d 7a 6c ce bb
       0.033674918 0.04613178 0.077291854 -0.0062995525
000110 2d 67 b7 3c 42 b3 de 3c 47 0c dd 3c 48 20 33 bd
       0.022388065 0.027185086 0.026983393 -0.043731958
000120 e6 80 8e 3b 68 90 06 bd 75 ed a6 3c 6b 56 ba 3d
       0.004348862 -0.03285256 0.0203769 0.09098514
000130 c0 3d eb 3d b6 3e e5 3c 0c 14 aa 3b de 6e 8e bc
       0.11486387 0.027984004 0.005190378 -0.01738685
000140 a6 d6 b5 3c d0 e9 20 bb 33 d7 41 3c 73 e5 87 3b
       0.022197079 -0.0024553426 0.011831093 0.0041472255
000150 74 a6 ac bc b8 9f 99 bd 71 05 75 3c 76 ec 17 bd
       -0.021075465 -0.07501167 0.014954911 -0.03709074
000160 f9 62 58 3c 95 08 df 3c db de 79 3b 4b f7 89 3d
       0.013207191 0.027225772 0.0038127217 0.067366205
000170 34 f6 22 3d a9 87 48 bd 0d de 11 bd d8 a5 7e 3c
       0.03978558 -0.0489575 -0.035612155 0.01554247
000180 11 84 6e 3d ed 81 d1 bb 43 1c 30 39 59 53 6f bd
       0.058231417 -0.006393662 0.00016795196 -0.058429096
000190 66 20 11 3d a9 22 1a 3c 9e 74 7f 3c 43 ec 2c 3b
       0.03543129 0.009407678 0.015591769 0.002638594
0001a0 37 89 a9 bd c7 ae fc 3c b9 42 ae bc 36 46 79 bd
       -0.08278125 0.03084506 -0.02127205 -0.060857974
0001b0 76 19 d6 3c 00 92 8a bb d2 00 30 bd 0e 87 f3 3c
       0.026135188 -0.0042288303 -0.042969532 0.029727485
0001c0 60 6f e2 bd b6 ff f3 3c 69 46 95 bd a0 bd 5d bd
       -0.11056399 0.029785018 -0.0728882 -0.05413592
0001d0 aa 24 16 bd d3 36 40 3d 22 45 af 3c 65 3a 92 3c
       -0.03665606 0.046927284 0.02139527 0.01785011
0001e0 4f 0f 90 bd 1f 2a c9 3b 62 d5 81 bc 2a b5 7a bd
       -0.0703417 0.0061390544 -0.01584882 -0.061207928
0001f0 da df 43 3c b7 d8 0b bd e9 0b b4 3c 2f cf d6 ba
       0.011955226 -0.034142222 0.021978335 -0.001638865
000200 9b 94 a3 bc 74 2f bc 3b fa ba 15 bc 45 9e d4 bb
       -0.019968322 0.0057429615 -0.009138817 -0.0064885938
000210 53 aa 36 3d 9f 67 06 3d 54 9b f9 3c dd 02 c7 3c
       0.044596028 0.032813665 0.030469574 0.024293358
000220 91 04 09 3d 90 e1 26 3d 28 9f 78 3c ce 2f 0b bd
       0.03345162 0.040742457 0.015174665 -0.033981137
000230 d3 d2 48 bc 80 fd 47 bc 27 2f 2d bb 03 38 d4 bd
       -0.012257296 -0.012206435 -0.002642581 -0.10362246
000240 02 7e 0e bd 37 77 ed 3a 3b 6f 7b bd a4 28 06 3c
       -0.03478814 0.0018117194 -0.061385375 0.0081884
000250 c0 31 ed 3b 65 8b a3 3d eb bb d4 bc e0 c6 6b bc
       0.0072385967 0.07985572 -0.025968513 -0.014390677
000260 4d 74 bc bb 86 da f9 3b e3 7f f2 3c 2c 70 1e bc
       -0.005751169 0.007624927 0.029601997 -0.009670299
000270 e5 8f 80 bb 06 dc 55 3d ec 83 40 3d ae 22 64 bc
       -0.0039234036 0.052211784 0.04700081 -0.013924284
000280 32 2f 0c 3c 4f e2 1a 3d 3d 71 93 3d bd 96 f1 bc
       0.008556174 0.03781348 0.07199333 -0.029490823
000290 54 ba cd bc 81 be 1d bd 79 88 7e 3c ae fb ec 3c
       -0.025113262 -0.038511757 0.015535467 0.028928604
0002a0 f8 ea bf 3b 21 75 95 bc cb d9 91 3c 3f d9 5a bc
       0.005856868 -0.018244328 0.017804047 -0.01335746
0002b0 9b 4f 73 3d be 45 59 bb c8 47 e3 bc 09 05 f7 3a
       0.05940209 -0.0033153142 -0.027744189 0.0018846105
0002c0 05 5d 53 3d ff 26 ad 3c 4e 8c 96 bc f2 2a c1 3c
       0.051602382 0.021136759 -0.01837745 0.023580048
0002d0 e2 f5 bf 3c 20 6c 0f bd 20 f6 16 3b 9e 39 31 bd
       0.023432676 -0.035015225 0.0023034886 -0.04326784
0002e0 95 d8 a9 3d 51 25 44 bb 84 cd fc 3c ae 39 4a 3d
       0.08293263 -0.002992947 0.030859716 0.049371414
0002f0 5c 62 57 bb cd 68 23 bc 0f 7f 10 bd 89 cb 9f 3c
       -0.0032865023 -0.009973717 -0.035277423 0.019506233
000300 0d 4c 08 bc fb 31 da 3c be 24 74 3d df f2 6b bd
       -0.008318913 0.02663516 0.059605353 -0.057604667
000310 17 82 59 3d bc 9b dd 3c d5 16 db bb a1 fd 6b 3c
       0.05310258 0.027051799 -0.0066860714 0.014403732
000320 d8 bd 24 bd 04 4c 05 3c df 41 a4 bc 74 6e 56 bd
       -0.04022011 0.008135799 -0.020050941 -0.05235143
000330 01 51 12 3c d1 e6 ff 3b f5 9f f8 bc f2 5a 95 bc
       0.008930446 0.007809498 -0.030349711 -0.018231843
000340 50 97 9d bd 80 4b 7a 3d 1e 4a 20 bd a4 a8 12 bd
       -0.07694876 0.06110716 -0.039133184 -0.03580536
000350 c8 b7 ca 3b 3b 06 bd 3c 1f e9 42 3c aa 0a 7b bc
       0.006186459 0.02307426 0.011896401 -0.015322367
000360 14 4b 87 3c ea 0d 20 3c 03 1b dd bc 7d 15 6d bd
       0.016515292 0.009768942 -0.02699042 -0.05788182
000370 a8 98 1f ba 20 40 74 ba eb 45 0f bd 9c c5 5b 3d
       -0.0006088116 -0.00093174167 -0.03497879 0.05365525
000380 4c 35 52 bd b8 86 f5 bc 25 7c 3e bd af 49 b9 bc
       -0.05132036 -0.029971465 -0.046505112 -0.022618143
000390 73 c6 29 3d 85 ba 3a 3d 5f 00 11 3d 1c f6 c0 3c
       0.04144902 0.045588035 0.035400745 0.023554854
0003a0 d0 28 ad bc 82 b6 b6 3b 03 0b 5a 3c 8e 09 c3 bb
       -0.021137625 0.005575956 0.013308289 -0.0059520667
0003b0 dc 79 cb bc 91 b6 16 bd 3a 48 e4 bc 03 39 1a bd
       -0.02483838 -0.036795203 -0.027866472 -0.037652027
0003c0 7f 87 01 bd d8 28 56 bb 17 bf 63 bc 57 03 87 3d
       -0.03162336 -0.0032678153 -0.01390054 0.06592434
0003d0 a4 3e 18 3d c0 9d 0e 3c 11 20 68 bc a4 76 63 bd
       0.037169114 0.008704603 -0.0141678015 -0.055533066
0003e0 8b b6 dc ba 50 b7 25 3a a5 d9 23 bd 46 71 2f bd
       -0.001683907 0.0006321566 -0.040002484 -0.042832635
0003f0 3b 50 f3 3b 28 00 c4 3c 1d 33 c0 3c ef cc 9d bb
       0.0074253357 0.023925856 0.023461873 -0.0048156898

layer1.bias f4 [32]
000000 2e 87 97 3c f2 da 63 bc 7c 69 3a 3d ae c5 0b 3d
       0.018497076 -0.013907181 0.045510754 0.03412407
000010 25 d1 3a 3a c0 7f bd 3b ac 7d 9a 3c e2 72 bb 3c
       0.0007126502 0.0057830513 0.018858753 0.022881929
000020 13 02 dd 3a b4 fc 25 3d d0 cb 45 bc 76 73 c6 3c
       0.001686158 0.0405242 -0.0120725185 0.024224978
000030 f7 68 ee 3c 4b 29 26 3d 65 bc 6c bb f4 6c 50 bc
       0.029102786 0.040566724 -0.0036123034 -0.012721289
000040 d1 ac 38 3b f9 09 f5 3c 2e df 8f bc 8b 3b 91 bc
       0.0028179178 0.029911982 -0.017562475 -0.017728588
000050 fa 9c a6 3c 46 12 fe 3c cb 2c 9e bb a7 85 2e 3c
       0.020338524 0.031014573 -0.004827117 0.010651982
000060 8e 3a 1e 3d 74 d6 c8 bc 74 5d 20 3d a6 d1 db 3c
       0.03863006 -0.024516322 0.039151624 0.026833367
000070 b7 d4 2d bc ac ac 09 3c 8b 33 07 3d 96 f5 e5 bc
       -0.010609797 0.008402985 0.03300814 -0.028071206

layernorm1.weight f4 [32]
000000 ac f4 83 3f ca 9f 8b 3f 40 47 91 3f 7f 63 93 3f
       1.0309043 1.0908139 1.1349869 1.1514739
000010 35 e6 82 3f 6b c0 81 3f 54 59 6a 3f 5b 8b 69 3f
       1.0226504 1.0136846 0.91542554 0.91228265
000020 10 0c 6b 3f ae f1 71 3f 56 64 8b 3f b4 1d 9a 3f
       0.9181528 0.945094 1.0889995 1.2040315
000030 a0 08 75 3f 3b 01 7c 3f ba 3e 88 3f 57 06 83 3f
       0.95716286 0.9843938 1.0644143 1.023631
000040 c5 31 8f 3f 4f 4a 8e 3f df fe 71 3f fe 25 80 3f
       1.1187063 1.1116427 0.9452953 1.0011594
000050 50 58 86 3f c9 c4 85 3f f5 bc 7a 3f fc b8 78 3f
       1.0495701 1.0450679 0.97944576 0.97157264
000060 88 38 89 3f d9 fe 7d 3f 6b 44 88 3f d7 7d 7d 3f
       1.0720377 0.9921699 1.064588 0.9902014
000070 4a 05 7e 3f 01 f2 87 3f f2 f8 6c 3f f9 15 85 3f
       0.9922682 1.0620729 0.9256736 1.039733

layernorm1.bias f4 [32]
000000 07 7e 51 bc d0 bb 9a bc e8 eb 15 bd 48 fc 91 3c
       -0.012786395 -0.018888384 -0.03660193 0.017820492
000010 6b ca cc bc d5 6f a3 bc 95 73 8d bd c6 1f 91 3c
       -0.024998864 -0.019950787 -0.06906811 0.017715346
000020 38 53 49 bd c8 72 64 3c d0 3a 8b bc 05 aa ac 3c
       -0.04915163 0.013943382 -0.016995817 0.021077165
000030 b5 ad 93 3c d8 88 0b 3d e4 28 07 bd c7 eb 53 3b
       0.018027166 0.03406605 -0.03299798 0.003233658
000040 1e ff e9 bc c4 f2 a4 3c 53 d7 0f bd 47 1c c9 bc
       -0.028564032 0.02013529 -0.03511746 -0.024549617
000050 f2 52 c8 bb 07 bd d7 bc 4f a5 88 bc 5d 2e 09 bd
       -0.0061134035 -0.026335252 -0.016680388 -0.03349148
000060 65 ff ad bc 01 af b6 bc f9 3b c6 bd cb d6 a2 3c
       -0.021239946 -0.022300245 -0.096794076 0.019877812
000070 48 7a 08 bd a7 60 de bc 31 df 62 3c 48 a3 66 bd
       -0.03331974 -0.027145697 0.013847158 -0.05630806

blocks.0.fcn_layer.weight f4 [32, 32]
000000 08 88 3a 3e ba 45 46 be 69 5b 0c 3e 8f d0 8f 3e
       0.18215954 -0.19362536 0.13706745 0.28088805
000010 36 d0 06 be 96 10 35 be e4 88 d3 3d 6b dc e5 bb
       -0.13165364 -0.17682108 0.10328844 -0.0070148013
000020 67 5b 10 3c 38 8f 42 3e 5d a9 29 be b6 e4 90 3e
       0.0088108545 0.18999946 -0.16568513 0.28299493
000030 e1 01 ab bc 54 cc 8d bc 47 9e 56 3d ea bc 26 bb
       -0.02087492 -0.017309345 0.05239704 -0.0025442191
000040 61 ac 6a be 27 81 87 3e c5 57 1c be fd b8 6c 3b
       -0.2291732 0.26465723 -0.15267856 0.0036121004
000050 70 b8 60 be 14 27 9b 3d 04 f3 07 be df b0 5c 3d
       -0.21945357 0.07575813 -0.13276297 0.053879615
000060 10 74 2e 3e 86 e0 5a 3d f7 c9 d5 3d 09 30 3a bc
       0.17036462 0.05343678 0.10438912 -0.011363992
000070 34 a8 36 be a8 4f b9 bc cd 61 26 bc c6 30 4a be
       -0.17837602 -0.02262099 -0.010155153 -0.19745168
000080 c3 23 88 bb d9 9c 8b bd ed d7 ad 3d 87 60 98 3d
       -0.0041546538 -0.06817026 0.0848845 0.07440286
000090 29 69 b3 bd 19 e8 9f bd 00 b3 05 be 65 b7 0f bc
       -0.08760292 -0.07807941 -0.13056564 -0.008771752
0000a0 27 21 2a bd 34 54 84 3c da 6d 5a bd ac 2c 57 3e
       -0.041535523 0.016153432 -0.05332742 0.21013135
0000b0 ec 1a 16 3d 95 dc 47 bd ef 61 43 3b ff 9a 7c bd
       0.03664677 -0.048794348 0.0029813012 -0.061671253
0000c0 3d 66 06 be 83 67 f2 3c f1 45 09 be 47 89 c2 bd
       -0.13124938 0.029590374 -0.13405587 -0.0949884
0000d0 7a 56 c8 3b c8 cb 9b 3d a1 6f 22 bc bb 33 18 be
       0.0061138244 0.076072276 -0.00991431 -0.14863484
0000e0 ae 59 c2 bc 36 be 9e bb 8b ce 2e bd 4c 2f cf 3c
       -0.023724403 -0.0048444523 -0.042677443 0.025291108
0000f0 77 89 a7 bd 71 c7 96 bd 33 12 44 bc fc ac 32 bd
       -0.08180516 -0.07362259 -0.01196723 -0.043622002
000100 7e 9d 3d be 5c 0c 6f 3e 05 65 99 be 7d fa 6a be
       -0.1851711 0.23344558 -0.29959884 -0.22947116
000110 d4 7b 83 3d 6c 86 24 bc 25 f3 ba bc f6 17 46 3e
       0.06420103 -0.010041814 -0.022821018 0.19345078
000120 b8 3d 3c bd 79 ec bf bd c8 bf 4f 3e 1e 1a 7f be
       -0.045957297 -0.093712755 0.20288002 -0.24912307
000130 51 2b 9c bb b5 7e 33 3b 7d b4 7f 3e 8c da 0c 3e
       -0.004765906 0.0027388756 0.24971195 0.13755244
000140 d2 7d 52 3e 4a 6b 63 be 55 8c 6f 3d 00 80 cc 3d
       0.20555809 -0.22208896 0.05848344 0.099853516
000150 6b 00 35 3e 17 96 5b be 6b 13 fc 3d a9 0e 05 3c
       0.1767594 -0.21443973 0.12308391 0.008121171
000160 69 47 fb bd cf 89 37 3e d9 a2 5b be c5 45 a6 bd
       -0.1226948 0.17923664 -0.2144884 -0.08118776
000170 e4 1b aa 3c c6 d1 0e 3e 62 14 12 3c 64 c2 6f 3e
       0.020765252 0.1394721 0.008915992 0.23413998
000180 5a 35 80 bd e5 61 0f 3e 45 70 a8 bd 82 8a 92 bd
       -0.06260176 0.14002188 -0.08224539 -0.071553245
000190 19 9b 1c 3d d0 8f b2 bd 52 90 96 3d bc f6 d7 bd
       0.03823385 -0.08718836 0.07351746 -0.10545108
0001a0 c1 8f e2 bd d8 a0 f7 3d c5 23 25 3d da 19 99 bd
       -0.11062575 0.120912254 0.040317316 -0.07475634
0001b0 a6 16 87 bd 2b 4b d5 3d 9d 76 1c 3e d5 c4 e2 3b
       -0.06596117 0.10414728 0.15279622 0.006920437
0001c0 7a 47 c9 3d f3 e4 37 bd b1 8e 2f bd ac 55 90 bd
       0.09828086 -0.044896077 -0.04286069 -0.070475906
0001d0 1d 21 43 3e 6d 54 8b bd b7 02 02 3e b8 98 8b 3d
       0.190556 -0.06803212 0.12696348 0.06816238
0001e0 03 32 47 bc 59 ad ab bd c2 88 6d bd 10 73 0b be
       -0.01215792 -0.08382673 -0.05799175 -0.13618112
0001f0 aa e7 ea 3d e9 86 55 3d b8 4b 09 be ba 45 ae 3d
       0.11469968 0.052130613 -0.1340779 0.08509393
000200 fa 16 39 3e 7d 28 ba bd dd ea 96 3e e9 ac 07 3e
       0.18075171 -0.09089754 0.2947606 0.13249554
000210 46 64 11 be 31 39 12 be 90 9d 49 bd 9f 24 cc 3d
       -0.14198408 -0.1427963 -0.04922253 0.099679224
000220 9b 36 2d 3d 96 38 15 3e 63 84 3f be 63 83 5a 3e
       0.042288404 0.14572367 -0.18702845 0.21339183
000230 3c 61 73 3d dd 8e de 3c 30 af e0 bd 70 8c 80 bd
       0.0594189 0.027167732 -0.10970914 -0.06276786
000240 1e df 90 be ca 5c 50 3e 53 14 e4 bd eb 94 b3 bd
       -0.28295225 0.20347896 -0.11136689 -0.08768638
000250 85 c4 1f be 0c 90 32 3e 67 32 21 be 27 9c 9a 3d
       -0.1560231 0.17437762 -0.15741883 0.07549315
000260 c5 ce 0d bc 97 c5 41 bb 89 30 00 3e c7 ae e3 bd
       -0.008655255 -0.0029567236 0.12518515 -0.111173205
000270 f9 a4 d6 3c 95 38 17 be a2 88 f8 bd a2 3f 1f be
       0.026201712 -0.14767678 -0.12135436 -0.15551618
000280 1f a7 b7 3d 8c f4 0c bd da 86 63 bd 6c 25 b0 bd
       0.08967423 -0.034412906 -0.055548526 -0.08600888
000290 1c 66 2b 3e 26 59 f1 3c 36 4c f1 3c e8 0f a8 3d
       0.1673817 0.029461455 0.029455286 0.08206159
0002a0 ef 78 3e 3d 65 97 e0 bd cc 8a 52 3e 37 87 b5 bc
       0.04650205 -0.10966376 0.2056076 -0.022159202
0002b0 b4 e1 08 3e 1a de e2 3c 55 7c b4 3d 8d b8 96 3d
       0.13367349 0.027693797 0.08812777 0.07359419
0002c0 80 74 51 3d 29 8b ab bd 5c 59 0a 3e 5a 73 07 3d
       0.051136494 -0.08376152 0.1351065 0.033068992
0002d0 42 85 28 3e ae 2c ef 3b f0 dd dc 3d 06 9d 5d bb
       0.16457084 0.0072990274 0.10784519 -0.0033815517
0002e0 1f ca f9 bc dd c2 8e 3d 3e 09 3f bd f1 d2 ca bd
       -0.030491887 0.06970761 -0.046639673 -0.09903515
0002f0 2d 04 f4 3d 42 31 28 3e 88 73 e6 bd ff be 62 3e
       0.11914859 0.1642504 -0.112525046 0.22143172
000300 a0 21 c1 bc 71 4f 06 be 28 58 7a 3e aa e6 85 3e
       -0.023575604 -0.13116242 0.24447691 0.26152545
000310 7a 9e 39 3d bd 0a 51 be fa 9c 57 be 7c 8e 93 3d
       0.04531715 -0.20414253 -0.21055976 0.07204911
000320 db 6c cf 3d 2e 2f 33 3d 67 15 d5 bc 8f d7 7e 3e
       0.101281844 0.043746166 -0.026011182 0.24886917
000330 69 b2 82 3c d2 35 81 bd 34 4e 32 bd e2 75 0c be
       0.015954213 -0.063090935 -0.04353161 -0.13716844
000340 a5 79 02 be 5d c2 cf 3c fa f0 24 be 99 75 08 be
       -0.12741716 0.025361234 -0.1610755 -0.1332611
000350 63 4c 9f bd 85 b1 30 3e 9c 95 f9 3d 72 62 3f be
       -0.077782415 0.17255218 0.12186739 -0.18689898
000360 fa 77 f7 bd d2 bf ff bc 5a bc 82 3e d3 1a 07 3d
       -0.120834306 -0.031219397 0.25534326 0.032984566
000370 d6 c7 36 be 7d 88 2b be 42 7c 7c bd c0 0b 0b bd
       -0.17849669 -0.16751285 -0.06164194 -0.033946753
000380 4f 29 16 3e ee 5f f3 bd f5 19 92 3e b2 4a 97 3e
       0.14664195 -0.118835315 0.2853543 0.29549176
000390 4c ed 28 be e5 3b 2e be 0f 40 54 bd 59 f1 ae 3d
       -0.16496772 -0.17015035 -0.051818904 0.08542127
0003a0 81 f5 b3 bd a9 33 94 3c 0a 5b 46 be 58 1d 97 3e
       -0.087870605 0.01809104 -0.19370666 0.29514575
0003b0 b0 9f fd bd 14 b8 68 3d 26 1a 20 be fa 4c 6a bd
       -0.123839736 0.056816176 -0.15634975 -0.057202317
0003c0 13 33 82 be fc b8 75 3e b2 27 e1 bd f5 c0 08 be
       -0.25429592 0.23996347 -0.109938994 -0.13354857
0003d0 43 b6 a0 bd 46 ff 2a 3e 4f 3f 4a bd 67 76 72 3c
       -0.07847264 0.16698942 -0.049376782 0.014798737
0003e0 38 bc 8d 3e ff 57 fe bd dc 78 86 bd 72 3e 08 3c
       0.27682662 -0.12419128 -0.06566021 0.008315669
0003f0 60 4c 70 3c d4 05 3c be 0f fb cd 3d 04 2e ae bd
       0.014666647 -0.18361598 0.10057651 -0.085048705

blocks.0.fcn_layer.bias f4 [32]
000000 bc 84 28 bd f4 d0 26 3d e1 bc a1 bd 34 09 38 3e
       -0.04114221 0.040726617 -0.07897354 0.1797226
000010 5d d9 4f 3d 50 7d 94 bd 75 f6 e1 3d 16 70 58 bd
       0.050744403 -0.07250464 0.11033336 -0.05284127
000020 b8 d0 8e 3d 18 d9 17 3e e8 e2 cb bd 53 a1 f6 bc
       0.06973404 0.14828908 -0.09955388 -0.030106222
000030 8d b0 6e 3d b1 7c 07 3e be 1f 5f 3d 38 9e d8 3c
       0.05827384 0.1323116 0.05447363 0.026442632
000040 6e 8f e1 bd 7d 73 16 3e 22 54 e1 bd 6f 93 b6 3c
       -0.11013685 0.14692493 -0.11002375 0.022287099
000050 da 77 b7 bd 68 54 d1 bd 72 6c c0 bd 1c 6c 5d bd
       -0.08958407 -0.10221177 -0.09395684 -0.05405818
000060 07 27 d2 3d 02 33 29 3e 9f 88 c4 3d bf 02 e6 3d
       0.1026135 0.16523364 0.09596371 0.112309925
000070 56 8c 3f 3d af 28 40 bc cf f0 e3 3d 54 e9 21 3e
       0.046764694 -0.01172845 0.11129915 0.15811664

blocks.0.layer_norm.weight f4 [32]
000000 e5 4e af 3f b2 74 70 3f 75 25 a5 3f 92 f5 86 3f
       1.3695952 0.9392806 1.2902056 1.0543692
000010 26 51 af 3f 76 ab 93 3f a5 29 a7 3f 50 e6 b6 3f
       1.369664 1.1536701 1.3059584 1.4289036
000020 28 ae 9f 3f 19 2a 88 3f ff ae 99 3f 6e 55 6d 3f
       1.2475023 1.0637847 1.200653 0.9270848
000030 98 70 7f 3f c5 22 9f 3f b4 85 a9 3f c4 fd 9e 3f
       0.9978118 1.2432486 1.3243928 1.2421193
000040 1b 37 99 3f 20 03 9e 3f 31 63 64 3f d6 b3 81 3f
       1.1969942 1.2344704 0.89213854 1.0133007
000050 6f 77 9c 3f 0e 12 a8 3f 67 ed a6 3f 7d 42 97 3f
       1.2223948 1.313051 1.30412 1.1817166
000060 0c 35 91 3f 8d f6 a7 3f 33 0f a4 3f 68 50 81 3f
       1.1344314 1.3122116 1.2817138 1.0102663
000070 6d e5 9e 3f 61 e6 a3 3f 5d bb ae 3f 2a 2e 9c 3f
       1.2413765 1.2804681 1.3650929 1.2201588

blocks.0.layer_norm.bias f4 [32]
000000 e3 66 80 3e b1 54 10 be 42 70 3b 3e 1a d4 21 bd
       0.25078496 -0.14094807 0.18304542 -0.039508916
000010 92 36 58 3e 6a fc 9f 3d 88 75 4a 3e 91 7e 7a 3e
       0.21114567 0.07811816 0.19771397 0.24462344
000020 fd 4c e5 3b 2c ec 9b bd b9 02 26 3d 91 ba 87 be
       0.006997703 -0.076134056 0.04052994 -0.26509526
000030 c2 81 67 bd aa 71 13 3e 66 92 5c 3e b8 d1 24 3e
       -0.05652023 0.14398828 0.21540222 0.16095626
000040 d7 49 af bb c0 9c 5c 3e 3d de 0d be 4c 42 78 bd
       -0.0053493786 0.2154417 -0.13854308 -0.0606101
000050 14 dc 5c 3e d9 ae 44 3e da fd 4d 3e ca bf 06 3d
       0.21568328 0.19207324 0.20116368 0.032897748
000060 24 3c 43 3e c4 11 e7 3d cf 18 2d 3e f7 a3 1e 3d
       0.1906591 0.112826854 0.16903995 0.038730588
000070 e0 24 ec 3d 63 bb 28 3e e9 c8 e0 3d 80 ab b6 3d
       0.11530471 0.16477732 0.109758206 0.0891943

last_layer.weight f4 [1, 32]
000000 55 77 d6 be 38 ff e5 3c a7 3e e8 3e 89 10 11 3e
       -0.41887918 0.0280758 0.453603 0.14166464
000010 84 79 d9 be 0d 90 76 3e a0 52 cd be c2 95 08 bf
       -0.42475522 0.24078389 -0.401021 -0.5335351
000020 0c 15 88 3e 39 8b 73 be 35 8a 88 3e de 40 39 be
       0.26578557 -0.23783578 0.26667944 -0.18091151
000030 21 30 49 3d e5 8f 9f 3e 47 72 e4 be 0f 23 81 3e
       0.049118165 0.3116447 -0.44618437 0.2522206
000040 f3 d7 51 3e 48 11 bb be ae e2 5f bd ad e6 cf 3d
       0.20492534 -0.36536622 -0.054659538 0.1015142
000050 a4 5a af 3e 5a 2f ee 3e 0b 55 ca be 32 d5 af 3e
       0.3424884 0.465205 -0.39518008 0.34342343
000060 30 32 8d be 52 b8 ba 3e 72 50 da 3e 62 22 8a 3d
       -0.27577353 0.3646875 0.426395 0.06744839
000070 e4 d4 b0 3e e6 96 88 3e 4e b5 98 3e 1d 3d bc 3e
       0.34537423 0.26677626 0.29825824 0.36765376
