wakeword_models/hey_stryker/hey_stryker_dipco_1.onnx (onnx, 205430 bytes, 9 tensors)

layer1.weight f4 [32, 1536]
000000 52 23 26 3d d2 c0 b2 3b 79 6c 6f bc 7b 84 a7 3c
       0.040561028 0.005455115 -0.014613264 0.020448914
000010 4b 71 df 3c 27 11 6e 3d 9c 0c 50 bb 56 11 a6 3d
       0.027275702 0.058121826 -0.0031745797 0.08108775
000020 19 23 92 3d 72 ca ce 3c 6b 08 77 bc 1f 2e 20 be
       0.071356006 0.025243018 -0.015077691 -0.15642594
000030 ad b6 1c 3d c3 49 79 bd 7c fe 9f 3d b4 95 ec bc
       0.03826015 -0.06086136 0.07812211 -0.028879978
000040 1f f7 b0 3d 55 28 0f bd 06 29 72 bc 16 f8 33 3d
       0.086408846 -0.034950573 -0.014780289 0.043937765
000050 96 34 79 3d 7f 31 af 3d 25 33 06 bd 47 71 9f 3d
       0.060841165 0.085543625 -0.03276362 0.07785278
000060 ce f5 35 3c 2c 98 6e 3d 3c a5 c9 3c 23 88 a5 bb
       0.011105968 0.05825059 0.024614923 -0.005051629
000070 12 7c b5 3d 47 86 72 3c 1f ec 70 3b d7 4c 9e 3c
       0.08861555 0.014802522 0.0036761833 0.01932375
000080 35 11 90 bb 8b 1e cc 3d 8a ce 54 3c b3 4e 8c 3d
       -0.0043965825 0.09966763 0.012988696 0.06850948
000090 8f 67 92 3c d8 ba 1d 3d 1c 21 cd bb 97 ed 07 3d
       0.017871646 0.038508266 -0.0062600505 0.033185568
0000a0 1c e6 d4 3c 8b 43 23 bd c1 d4 3f 3c e5 97 92 bd
       0.025988631 -0.039859336 0.011708439 -0.07157878
0000b0 a7 7f b6 bd 3a 2c e0 bc 38 50 c2 bc 68 67 24 3d
       -0.089110665 -0.027364839 -0.023719892 0.04013768
0000c0 75 03 57 3d c8 22 56 bc b7 3a 5e bc 42 e6 0f 3d
       0.05249353 -0.013069816 -0.013563803 0.0351317
0000d0 44 62 10 3d a9 88 c9 bd 16 bb 53 bd 6a 1e 0b bb
       0.035249963 -0.09840519 -0.05169209 -0.0021227845
0000e0 10 ee 92 bd 67 76 73 3c fe aa af 3c 3d a9 f2 bd
       -0.07174313 0.014859772 0.02144384 -0.11848686
0000f0 20 4b 4f bc 70 ff f7 3c 29 bc 40 3c 24 89 d6 bd
       -0.012652189 0.03027317 0.011763611 -0.10475376
000100 cf 5f 99 3d a8 60 a6 3d 05 72 51 bd 37 f3 6b bc
       0.07488977 0.081239045 -0.051134128 -0.014401249
000110 82 56 9e bd 41 5f 98 bc 1d 06 83 bc 1b 99 b7 3b
       -0.07731344 -0.018600108 -0.015994126 0.0056029684
000120 73 e5 12 bd c4 37 de bd af 7e 02 bb 02 52 c2 bd
       -0.03586335 -0.1085048 -0.0019911935 -0.09488298
000130 f5 d4 06 bd 12 b8 1a 3d 1e 79 d9 bc be 7e 09 bd
       -0.032917935 0.0377732 -0.026547011 -0.033568136
000140 33 23 59 3d 1c 13 a1 3d 0f 37 ab 3d 6f 3d 4b bd
       0.053012084 0.07864973 0.08360111 -0.049619135
000150 06 15 15 3d f3 8e 60 bd d8 37 89 3b 71 fd 1d bb
       0.036397003 -0.054823827 0.0041875653 -0.0024107362
000160 7f b2 e6 bc 0d f8 db 3b 3c 35 38 bc 8c 06 8f 3d
       -0.028161285 0.0067129196 -0.011243161 0.069836706
000170 48 e3 6c 3c fe 55 36 bc 8a e6 33 bd cc 88 4b 3d
       0.014458485 -0.011128901 -0.04392103 0.049691007
000180 37 70 92 3d 11 e1 1f 3d 7e 95 17 3d 12 85 16 3d
       0.071503095 0.039033 0.0370078 0.036748
000190 5d 2e 76 3b 6b 9f 44 3d 57 45 76 bc f5 a3 c8 ba
       0.0037564256 0.048003595 -0.01503118 -0.0015307652
0001a0 ef c5 9c 3b 76 40 b0 3d 81 ba 7e bc 82 7c 32 be
       0.0047843377 0.08606045 -0.015547396 -0.17430308
0001b0 8f 2a 95 3d e0 e8 00 bd 79 f8 33 3d 1e 0c 32 bd
       0.07283508 -0.031472087 0.043938134 -0.043468587
0001c0 8b ad a8 3d ea 31 6c bd fa 56 d7 3c 95 b3 4c 3c
       0.08236226 -0.05766479 0.02628659 0.012493988
0001d0 c8 f0 25 3d 63 06 9b 3d 9c 64 e6 3c 24 c3 68 3c
       0.04051283 0.075695775 0.028124146 0.014206681
0001e0 ab 06 d7 bd 53 8e 79 3d 00 a6 3e bb 95 06 28 bd
       -0.10499319 0.060926747 -0.0029090643 -0.041021902
0001f0 90 81 c1 3c ec 70 ed 3d 51 54 95 bd 3f 11 1a 3d
       0.02362135 0.11593804 -0.07291473 0.037614103
000200 8f bd 2a bd 73 4d 9f 3d ea 84 60 bb 50 b9 c2 3d
       -0.041684683 0.07778444 -0.003425891 0.09508002
000210 db 88 ab 3c 63 3c 40 3b 75 cc 03 bd 4e 63 08 3d
       0.020939281 0.0029332868 -0.032177407 0.03329783
000220 c4 76 b3 bd f2 c2 8f bc 7a 52 12 3d 33 81 fa bb
       -0.08762887 -0.017549012 0.035723187 -0.0076447963
000230 f7 fc 32 bd 1d 81 31 bc c3 3e 24 bd ea 23 8f 3d
       -0.043698277 -0.010834006 -0.040098917 0.06989272
000240 50 29 95 3d e1 f6 16 3d de db 21 bd 12 15 90 3d
       0.0728327 0.036856536 -0.039516322 0.07035269
000250 6e 63 88 3c c0 b6 40 bd 85 32 4d bd 7c a2 73 bd
       0.016648974 -0.047049284 -0.050097007 -0.05948113
000260 3f 2a 03 be 59 a7 b0 3c 42 dc 9e 3b ef ea f2 bc
       -0.12809084 0.021564173 0.004848034 -0.02965304
000270 e9 5b cb 3d 6e 70 30 3d f9 e7 48 3c e0 97 03 bd
       0.0992964 0.04307597 0.012262338 -0.03212726
000280 6a 63 e5 3c 33 00 0e bd b4 09 17 bc 3b 85 1a bd
       0.028001506 -0.03466816 -0.009218622 -0.037724715
000290 d1 35 b1 bd 3a 21 18 3c d6 88 31 bd c5 42 64 3c
       -0.08652843 0.009285266 -0.043343388 0.013931935
0002a0 ef 0c 40 3d 4f 66 e9 bd 01 d2 8a bc a0 97 ae bd
       0.046887334 -0.11396467 -0.01694584 -0.08525014
0002b0 90 51 f2 bc 0b 8e c2 bd d3 14 82 bd 9a c0 3f bd
       -0.029579908 -0.09499749 -0.06351628 -0.04681454
0002c0 6e 2b ba 3d 59 a2 9a 3d d2 7b 3e bc 12 d3 36 bd
       0.09090315 0.075504966 -0.011626201 -0.044634886
0002d0 85 d6 13 bd c1 16 c7 bd 2c 86 ae bc 36 84 6f bd
       -0.036093254 -0.09721137 -0.021304213 -0.058475696
0002e0 18 e5 0b bc f0 21 39 3d 3b c5 ef bc 19 e4 86 bb
       -0.008538507 0.04519838 -0.029268852 -0.004116547
0002f0 f0 9c 02 3d ef 11 1b bd c7 6a 1f bc 27 46 94 bb
       0.03188795 -0.0378589 -0.009730048 -0.0045249644
000300 b4 bc 29 bc fa da 84 3d d1 2c 04 3b f4 cd ba ba
       -0.010359932 0.06487079 0.0020168314 -0.0014252053
000310 ae 50 ea 3c 26 4c 49 3d 76 b3 24 3d 9d 20 fe bc
       0.028602924 0.049144886 0.04021021 -0.03102141
000320 55 a2 0b 3c 1c e4 c4 3d 59 9d 7f bd ed 9e 03 be
       0.00852259 0.09613821 -0.062405918 -0.12853594
000330 e5 61 84 bc 77 ed 9b bd f2 b8 9c bc 5a a9 41 bd
       -0.016159961 -0.07613652 -0.019131158 -0.047280647
000340 0f 22 54 bc 17 c2 b3 bd fb a2 01 3e 12 4a 71 3c
       -0.012947573 -0.08777254 0.12659828 0.014727132
000350 9f ae 10 3d 74 4b 6a 3d 81 7f df 3b 0e 2c 0b 3d
       0.03532278 0.057200864 0.0068206196 0.03397756
000360 43 95 3c bd ef ab b2 3d d5 cd bb bc 57 b0 8f bc
       -0.046040785 0.087242 -0.022925297 -0.01754014
000370 22 89 d8 3c aa 29 c2 3d 43 12 1d bd 3d 0f 5d 3c
       0.026432578 0.09480603 -0.038347494 0.013492403
000380 67 b9 cf bc 6a c7 8b bc ce 33 b0 bc 5f 0e cd 3d
       -0.025356961 -0.017062861 -0.021509077 0.10012507
000390 9a 00 4a bb ba d1 76 bc 36 72 9b bd 92 0a 17 bb
       -0.0030823112 -0.015064651 -0.075901434 -0.0023047072
0003a0 95 d7 a4 3c 7f 0b 16 3d 2d ca b1 3c 55 51 26 3d
       0.020122329 0.036632057 0.02170285 0.040604908
0003b0 5c 57 4d 3d 97 3c 0d 3b 27 93 29 bd f8 bd 7e 3d
       0.05013214 0.0021551007 -0.0414001 0.062192887
0003c0 16 c6 c1 3d 6a ec d7 bb 77 93 73 bc c2 4b ce 3c
       0.0946161 -0.006589462 -0.014866701 0.025182609
0003d0 33 5d 0d 3d 9f 98 b1 bd 72 7c 3d bd fb 83 82 bd
       0.03451271 -0.08671688 -0.04626126 -0.063728295
0003e0 43 e4 85 bb 0d b6 b7 3c d2 d2 e6 bc ce 96 0a bd
       -0.004086049 0.022425676 -0.028176699 -0.033835225
0003f0 79 68 fd 3d cc c2 e0 bd 08 1e d6 3c 5b d5 aa 3c
       0.12373442 -0.109746546 0.026137367 0.020853689

layer1.bias f4 [32]
000000 99 d8 1a 3c 74 ef 98 3c a6 a2 91 3d 52 87 54 3d
       0.009451055 0.018668868 0.07111101 0.051886864
000010 f8 9a 9e 3d ad 13 cf b9 02 55 59 3d 1d 46 a1 3c
       0.07744402 -0.00039496776 0.053059585 0.019686753
000020 3a 48 89 3c 21 20 9a bc 20 73 a9 bc 23 28 83 3d
       0.016758073 -0.018814148 -0.020684779 0.0640414
000030 ea 1c a1 3c 6c e8 60 3d e2 16 1a bc 12 db d5 3a
       0.019667108 0.054909155 -0.00940487 0.0016315898
000040 90 51 f6 3c 9a fb 86 3d 61 e6 7a 3c de 83 8c 3c
       0.030068189 0.06590958 0.015313716 0.017152723
000050 6b 35 ba 3c 8f b1 8e 3d 1f 39 a3 3d f9 04 35 3d
       0.02273055 0.0696746 0.07969879 0.044194195
000060 bc 8b 8e bb a1 f2 c6 3c 7d 84 e6 3c 2e f1 28 3d
       -0.0043501537 0.024285616 0.028139347 0.041245632
000070 8b 18 3a 3d e1 53 ac 3d cc 55 c8 bc ad 10 4d bc
       0.045433562 0.08414436 -0.024454974 -0.012516183

layernorm1.weight f4 [32]
000000 d0 72 85 3f 11 97 6e 3f e3 77 75 3f 16 80 a0 3f
       1.0425663 0.9319926 0.9588606 1.2539089
000010 ad 2f 83 3f 87 f2 89 3f 87 81 75 3f 6b a5 81 3f
       1.0248924 1.0777138 0.9590077 1.0128607
000020 ff 9f 8e 3f 46 a3 84 3f 84 b5 7f 3f ca 81 7e 3f
       1.1142577 1.0362327 0.99886346 0.9941679
000030 bf b0 79 3f 4c 74 a9 3f 49 38 85 3f af 47 95 3f
       0.9753532 1.3238616 1.0407802 1.1662501
000040 db f9 5a 3f 9a a1 7b 3f 93 25 8b 3f cc 54 8a 3f
       0.855375 0.9829346 1.0870842 1.0807128
000050 79 50 83 3f a8 73 bc 3f 78 9b 69 3f 42 42 71 3f
       1.0258933 1.4722795 0.9125285 0.94241726
000060 43 3c 7c 3f 89 90 86 3f 85 ba 78 3f 87 65 90 3f
       0.9852945 1.0512859 0.97159606 1.1280984
000070 87 d7 a1 3f 63 c4 9d 3f 28 43 7e 3f af 76 82 3f
       1.2643899 1.2325557 0.9932122 1.0192469

layernorm1.bias f4 [32]
000000 bf 9b c6 3c ca d6 0d bd 98 45 32 3b bc 42 0b 3d
       0.024244187 -0.034628667 0.0027202126 0.03399919
000010 22 3f 12 3d 10 86 1c bc 9c ad 02 bb 8a 02 03 bc
       0.03570474 -0.009553447 -0.0019939905 -0.007996211
000020 2b 3d bc bc ba 89 80 bc 78 4a 4e 3b 94 3a ce 3c
       -0.022978386 -0.015690673 0.0031477492 0.025174417
000030 24 14 ca bc 2c 78 2b 3d cf 21 8e bc 15 96 b7 bc
       -0.024667807 0.04186265 -0.017350106 -0.022410432
000040 d7 93 07 bd 47 92 53 39 9a bc 4f bc 3e 59 61 bd
       -0.033099975 0.0002017702 -0.012679243 -0.05501675
000050 38 80 00 bd 8a fc 3b 3d c1 2d 56 3c 94 9a 87 ba
       -0.03137228 0.045895137 0.013072432 -0.001034575
000060 e0 89 84 bc a1 aa ac bc e4 a3 a4 bd aa a8 db 3c
       -0.016179025 -0.021077456 -0.08039072 0.026813824
000070 bd 3d a5 bc 2b ff 19 3d 05 ca d3 bc ec 5d 51 bc
       -0.02017104 0.037596863 -0.025853166 -0.01277874

blocks.0.fcn_layer.weight f4 [32, 32]
000000 0c 4f 1f bd ad 92 08 3e a5 03 26 3e 00 e6 9e bd
       -0.038893744 0.13337202 0.16212328 -0.07758713
000010 7a 02 68 bd 69 28 3e 3e b1 63 4b bc 98 a3 42 3e
       -0.056642987 0.18570103 -0.012413905 0.19007719
000020 e4 fa 95 3e a9 e3 b4 3e c3 e6 42 3e d5 9b c5 bd
       0.29292977 0.3532994 0.19033341 -0.09648863
000030 9e 88 12 3e ce 57 84 bd e2 f4 48 3d 17 de 92 3e
       0.14309928 -0.0646206 0.049061663 0.28685066
000040 14 f2 c9 bb a1 f5 39 3e b3 91 69 3e 8b 22 f8 3d
       -0.006162891 0.18160106 0.22809486 0.121159635
000050 d7 31 7d 3e 6f ac 62 be e3 3e e2 bc d4 ac 10 bb
       0.24726044 -0.2213609 -0.027617877 -0.002207567
000060 b9 a3 3f 3e 4d 66 0f 3e 3f b1 85 3e f9 e3 02 be
       0.18714799 0.14003868 0.2611179 -0.12782277
000070 ed af 37 be 4c 5a 07 be 08 52 12 3e da 1b 41 3e
       -0.17938204 -0.1321804 0.14289105 0.18858281
000080 07 d2 5f 3e 93 ea fd 3d ab f6 6d 3d 4b 5b 87 be
       0.21857463 0.12398257 0.05809657 -0.26436839
000090 3f e7 7f bd b9 97 89 3e ad 13 a8 3c bf 1d bd 3d
       -0.062476393 0.26873568 0.020517195 0.09234189
0000a0 f5 6a 29 3e c4 74 88 3e a2 8c 74 3e 3d df 2f bd
       0.16544707 0.26651585 0.23881772 -0.042937506
0000b0 dc f8 4a 3e 64 20 64 be e6 fa 35 3e 3f 74 9c 3e
       0.19821495 -0.22277981 0.17771491 0.3055744
0000c0 a7 a6 5c 3e fe 55 bb bd 49 de b5 3e cd 2a fa 3d
       0.21547948 -0.09147261 0.35521153 0.12215195
0000d0 b2 fb 89 3e af 43 a6 be dd 7c af bc 80 28 a1 bb
       0.2694984 -0.32473513 -0.021421844 -0.004918158
0000e0 65 75 0e 3e 24 ac 4c 3e a1 d1 dc 3b 12 6d 14 be
       0.1391197 0.19987541 0.006738857 -0.14494732
0000f0 4b 54 87 be 30 2a 33 be 56 70 94 3e df a3 c9 3c
       -0.26431498 -0.17496562 0.28991956 0.024614273
000100 7b 03 1f 3d ec fd 58 bc d9 ad 95 3d 55 83 d5 3e
       0.03882168 -0.013244133 0.073085494 0.4170176
000110 b1 57 3e 3e e9 bb 09 be 9c d6 5b be 11 10 dd bd
       0.18588139 -0.13450588 -0.21468586 -0.1079408
000120 8a 2d 16 be c4 76 f6 bd 22 a3 e7 bc 7d b7 13 3e
       -0.1466581 -0.120343715 -0.02827603 0.14425464
000130 a5 d1 19 be ad fe 8e 3e ba 02 77 be 14 3b 3c be
       -0.1502138 0.27928677 -0.24122134 -0.18381912
000140 01 ef 5c 3d 5f 49 39 3d b5 35 af bd 5e 62 1a be
       0.05393887 0.045235988 -0.08555166 -0.15076587
000150 81 70 f8 bd 02 d0 0c 3f be ea b4 3d 73 26 14 be
       -0.121308334 0.55004895 0.08833836 -0.14467792
000160 05 09 fb 3c aa 61 2f 3c 68 cd b8 bc a4 02 83 3e
       0.03064395 0.010704437 -0.022558883 0.25587952
000170 c0 1a 79 3e 45 58 af 3e 1e f0 30 be 11 a4 10 be
       0.2432661 0.34247032 -0.17279097 -0.14125086
000180 e5 a4 cf bc a4 65 39 3d af 5c ee bc 9e 69 af 3e
       -0.025347183 0.045262948 -0.02909693 0.34260267
000190 36 41 d5 3d b1 5c d0 bc 19 aa 31 3d 4b 8b cd bd
       0.104128286 -0.025434824 0.04337511 -0.10036334
0001a0 b3 13 fc bd e8 4d 11 bd e2 a9 1b be ca 5e e5 bd
       -0.12308445 -0.035474688 -0.15201524 -0.1119972
0001b0 e7 f1 10 3c 6a c6 b9 3e 04 8b b2 bd 15 f3 aa be
       0.0088467365 0.3628419 -0.087179214 -0.33388582
0001c0 ef 19 c8 3d 03 30 9c 3d ee 2b cd bd 5f 04 ba bd
       0.097705714 0.07626345 -0.100181445 -0.09082865
0001d0 6f 3e e3 bd 01 9c a0 3e de 69 9d 3d 1f 92 01 3e
       -0.11095893 0.31369022 0.07686208 0.12653397
0001e0 43 3e bf bd 01 25 e4 bd 40 9e 8c bc 86 dc 7f 3e
       -0.09338047 -0.111398704 -0.017165303 0.24986467
0001f0 58 21 a6 3e 9a 29 a1 3e b5 05 ac bd 4b ff a8 bd
       0.32447314 0.31477052 -0.08399526 -0.08251818
000200 85 b4 e7 3d bf 1e 94 bd d0 d7 b9 3b c0 89 3e 3e
       0.11313728 -0.07232427 0.005671479 0.18607235
000210 55 82 52 3e ea 75 91 be 6c 71 2b be a1 4a 2e be
       0.2055753 -0.28410274 -0.16742486 -0.17020656
000220 e0 38 66 be 04 53 4a 3d 59 94 3a bd de 69 4f 3d
       -0.22482634 0.049395576 -0.04555163 0.050638072
000230 ae e4 09 be 8a 54 d3 3e 8f 5c f0 bd 0a 1f ac be
       -0.1346614 0.41275436 -0.11736404 -0.3361743
000240 26 58 16 bd 3c 54 16 3e 45 17 88 be 0c cc f0 bd
       -0.03670516 0.1468057 -0.26580253 -0.11757669
000250 f5 29 62 be 80 b5 12 3f 6d 30 a3 bd 90 dd bc bc
       -0.22086318 0.573082 -0.07968221 -0.023054868
000260 de 0f df 3c c8 63 3c 3d a5 f2 99 3d 19 1a 4e 3e
       0.027229246 0.045993596 0.07516984 0.20127143
000270 39 22 82 3e 45 fc 73 3e e5 5d 36 bd 1d 8b 5a be
       0.25416735 0.23826702 -0.04452314 -0.2134213
000280 aa c0 1a 3d 1b 41 02 3e 7c 1c 22 3e c1 4f a2 bd
       0.037781395 0.12720148 0.15831178 -0.07925368
000290 f0 9f 6d bc b1 2b 5d 3e 1c 17 ff 3d 8a 0c 82 3d
       -0.014503464 0.21598698 0.1245558 0.06350048
0002a0 a5 af 06 3e 8f 13 72 3e 31 4c 9b 3d 4b 7c fa bd
       0.1315294 0.23640274 0.07582892 -0.12230738
0002b0 b8 37 f0 3d 9d 8d b8 bd f7 de 03 3e 63 fd 93 3e
       0.117293775 -0.090113856 0.12878023 0.28904256
0002c0 ed 78 05 bd c3 38 84 3d 2a 09 17 3e 12 b5 63 3e
       -0.032586027 0.06456139 0.1474959 0.22237042
0002d0 e2 cb 4b 3e b8 d1 87 be 51 0c 9d 3c ee c2 05 bd
       0.19901994 -0.2652719 0.019170912 -0.032656603
0002e0 0f 52 31 3e c1 db 80 3e 25 79 87 3d 38 c2 94 bd
       0.17316459 0.2516766 0.06614903 -0.07263607
0002f0 78 48 44 be 25 d5 b5 bd aa 80 bd 3d cb 05 82 3d
       -0.1916827 -0.08878545 0.09253056 0.06348761
000300 d7 ff c3 bd 5c 53 56 3e dc f8 1a 3d fa be a8 bd
       -0.09570282 0.20930237 0.037834987 -0.08239551
000310 80 43 4d 3d c5 17 46 3e e3 4e e7 bd 20 0e 7a 3e
       0.0501132 0.19345005 -0.11294343 0.24419451
000320 fd 41 9a 3e 53 84 77 3e c8 12 ff 3d 76 c2 ed bd
       0.3012847 0.24171571 0.12454754 -0.11609356
000330 af a9 4e 3e 71 26 fd bd b5 30 8c 3e fc 09 8b 3e
       0.20181917 -0.12360848 0.2738091 0.27156055
000340 4c 49 31 3d 08 ab af 3d 33 ee 50 3e 13 46 eb bc
       0.043282792 0.085775435 0.20403366 -0.028719937
000350 7c 81 59 3e cf dd 54 be 46 77 10 3c 17 73 eb 3d
       0.212408 -0.20787738 0.0088174995 0.11496561
000360 6a e6 45 3e e3 0e 4f 3e 83 59 64 3e ef 0d 68 be
       0.19326177 0.20220523 0.22299771 -0.22661565
000370 00 fc 10 be d6 80 28 be 5e 98 78 3e 71 62 0a 3e
       -0.1415863 -0.16455397 0.24276873 0.13514115
000380 c9 8f 05 3e 95 a6 d6 3d 5b 7e 5f 3d f2 92 b8 bd
       0.13043131 0.10480992 0.05456386 -0.090124026
000390 b5 b7 a0 bd 88 7b 83 3e 81 aa 1d bd 2f 51 11 3d
       -0.07847539 0.25680184 -0.038492683 0.035477813
0003a0 e4 a0 a1 3e 32 9b 18 3e c9 0c 1e 3e fa de d3 bd
       0.31568062 0.14902952 0.15434565 -0.10345264
0003b0 85 c8 84 3e ed e4 95 3b 43 98 40 3e c7 92 a5 3e
       0.25934234 0.004574409 0.18808083 0.32338545
0003c0 a4 f7 b8 3d b3 39 28 be 95 5e b8 3e 69 b7 37 3e
       0.09031609 -0.1642826 0.3600966 0.17941059
0003d0 e1 70 2d 3e d8 73 25 be 17 94 23 3d 8e b0 1f 3e
       0.16937591 -0.16157472 0.03993615 0.15594694
0003e0 ca ad 18 3e 2c 06 59 3e bb 20 b9 3d 44 bc ce 3c
       0.14910045 0.2119376 0.09039446 0.025236256
0003f0 44 24 1c be 3c a1 94 bd 43 43 57 3e 8d d1 09 be
       -0.15248209 -0.072573155 0.21021752 -0.13458844

blocks.0.fcn_layer.bias f4 [32]
000000 bc fb ce bd 38 04 2a bb 32 47 bb bb 22 e4 3b 3e
       -0.10106608 -0.0025942456 -0.0057152743 0.18348745
000010 9a f0 4e 3e e7 d9 97 bd 54 7f 1c be 75 b0 de bd
       0.2020897 -0.074146084 -0.15282947 -0.108735
000020 9a 32 e4 bc bf 4a 21 3d 4b ff b2 bc 15 43 16 be
       -0.02785616 0.039377924 -0.021850249 -0.14674027
000030 a0 bd 99 3d 98 f5 93 bc 64 d1 a2 bd e7 b4 7d 3d
       0.07506871 -0.018061444 -0.07950094 0.0619401
000040 d8 13 3f 3e 9c f7 8d bc ff 31 f3 bb 17 f6 94 3d
       0.18659914 -0.017329983 -0.0074217315 0.072735004
000050 73 db b4 bd 6b 43 61 bd dc f2 90 bd 85 2d 00 3b
       -0.08830919 -0.054995935 -0.07077572 0.0019558382
000060 dc ab f3 bd 42 8d ac 3d 9c 91 42 3e 05 3c 40 be
       -0.11898014 0.0842538 0.19000858 -0.18772896
000070 9f 67 15 be 44 5b a4 3d 58 40 24 be b6 14 04 3e
       -0.1459031 0.0802522 -0.1604017 0.12898526

blocks.0.layer_norm.weight f4 [32]
000000 63 31 b4 3f c9 5e a8 3f ef 82 ab 3f f5 cd b2 3f
       1.4077572 1.3153926 1.3399333 1.3969103
000010 ac 79 ab 3f 6a 00 a5 3f 35 a3 b0 3f 7a 6b b5 3f
       1.3396506 1.2890751 1.3799807 1.4173424
000020 ff 20 9f 3f f8 a4 75 3f 23 f6 ac 3f ba 14 ab 3f
       1.2431945 0.9595485 1.3512615 1.33657
000030 00 6a a7 3f 62 bc a2 3f 47 ca 8d 3f 47 f6 aa 3f
       1.3079224 1.271374 1.1077355 1.3356408
000040 9d 0e a1 3f f2 82 ac 3f a0 29 b0 3f c6 32 9d 3f
       1.2582585 1.3477461 1.3762703 1.228112
000050 35 4b a1 3f 4b e5 ae 3f f4 5c 90 3f 75 4d ae 3f
       1.2601076 1.3663725 1.1278367 1.3617388
000060 1a 4d b8 3f f7 47 b3 3f e0 89 9b 3f 40 d8 b5 3f
       1.439853 1.4006337 1.2151451 1.4206619
000070 d5 17 b2 3f 04 43 ac 3f cd 28 ab 3f 9b 34 b8 3f
       1.3913523 1.3457952 1.3371826 1.4391054

blocks.0.layer_norm.bias f4 [32]
000000 14 ac 76 3d 3e e7 3a 3e 16 e9 4b 3e 3b 2f 75 3e
       0.0602227 0.18252274 0.19913134 0.23943798
000010 29 a3 53 3e b8 b7 7e 3d cf 5d 0a 3e 46 7b b9 3d
       0.2066771 0.062186927 0.13512348 0.09056716
000020 ce 06 5c bd bb d8 39 bd 2d 39 6e 3e a9 5a 1f 3c
       -0.053717427 -0.045372706 0.23263998 0.009726205
000030 e0 fa af 3d dc 8e 11 3e da f4 fc 3d 2f 37 fc 3d
       0.085927725 0.14214653 0.12351389 0.12315213
000040 99 e7 5d 3e 63 6a ae 3d 04 aa 3e 3e 29 e3 65 3e
       0.21670379 0.085163854 0.18619543 0.22449936
000050 43 9c bc 3c 0c f7 d0 3d 14 a8 52 3e a4 bb 02 3e
       0.02302373 0.102033705 0.20571929 0.12766892
000060 13 9f 79 3e 75 86 50 3e 3b 25 66 3e 7e 0b 1f 3e
       0.24377088 0.20363791 0.2247514 0.15531728
000070 2a 5a 09 3e 7c 03 15 3e 3a ff 0f 3e d2 1e 29 3e
       0.13413301 0.1455211 0.14062205 0.16515663

last_layer.weight f4 [1, 32]
000000 b4 b2 f9 3e 1f f8 ef 3e 1f ba f4 be 01 c6 fa be
       0.48769152 0.4686899 -0.4779825 -0.4897919
000010 a2 87 ba be ce ca 94 3e b8 af e1 3e bd a7 d5 3e
       -0.36431605 0.29060978 0.44079375 0.41729537
000020 ab 92 95 be bc ca b9 3d 94 33 fd be 02 65 f4 3e
       -0.2921346 0.09071872 -0.49453413 0.47733313
000030 bb aa 9e 3e d9 9e d5 3e c0 b4 2a 3e 95 8b d3 3e
       0.30989632 0.41722754 0.16670513 0.4131743
000040 ac 3f bf be a1 80 e0 3e 3b 88 f0 3e 8c f0 81 3e
       -0.37353265 0.43848136 0.46978936 0.25378835
000050 21 f5 83 3e 6e 8b c1 3e 03 b4 3a 3e 7c 62 ec 3e
       0.25772956 0.3780169 0.18232732 0.46168888
000060 32 06 f5 be 6d dc ee 3e e6 ec ad be cd 4f c0 3e
       -0.4785629 0.46652547 -0.33969802 0.37560883
000070 27 46 b8 3e c3 dc a3 3e ac d7 ef 3e 3e b6 d6 3e
       0.35991022 0.32004365 0.46844232 0.41935915
