wakeword_models/hey_barco/hey_barcoh (2).onnx (onnx, 205430 bytes, 9 tensors)

layer1.weight f4 [32, 1536]
-0.056804605 0.041285817 0.035567224 0.005255359 0.031847745 -0.020134911 0.03691842 -0.031360757
0.05465201 0.03790503 -0.016246464 0.0416875 0.017932639 -0.04138413 0.011396377 -0.060918353
-0.00052616664 -0.0832108 0.07215587 0.01895758 -0.065970354 -0.024545081 -0.035364177 -0.010398926
0.010964632 -0.006729887 0.0030413936 -0.04812696 0.050272528 -0.026015718 -0.021601256 0.0073555233
-0.00932854 0.015937876 -0.069278456 0.084490374 -0.0034145173 -0.02293044 -0.022905882 -0.0017111105
0.004416274 0.01815599 -0.00097063323 0.0075211027 0.05871785 -0.013466677 -0.011259733 -0.025132125
0.051534675 -0.027073588 -0.0077601615 -0.006910484 0.021696035 0.04693693 -0.026581898 0.0038627805
0.009708591 0.011099683 -0.0042696088 0.025992867 0.054439135 0.03472981 -0.00023308923 0.1053291
0.008878887 0.032846097 0.026871502 -0.0048184292 -0.029785711 0.15000659 -0.0121454215 0.027203806
0.007088241 0.0064537493 0.0065779593 0.01485934 -0.042137817 0.11851214 -0.015972536 -0.016602807
0.014163442 0.064439416 0.024087537 0.018941252 0.03615555 -0.079251945 0.061263926 -0.039586663
0.045192227 0.018987972 0.06496765 -0.010069292 -0.0019395386 0.02553704 0.0314173 0.019360293
-0.09695256 0.026665337 0.06035576 0.026725946 0.06088668 0.023646038 0.005978604 0.014707949
0.029402547 0.017759759 -0.01473348 0.026246436 0.06138967 0.031563845 -0.029493228 -0.025989812
0.11991609 -0.028967269 0.040694907 -0.031133834 -0.029357655 -0.010606497 -0.0027723308 0.005564872
0.0123682115 -0.0075456556 0.014879733 -0.13558748 0.011165492 0.047478065 -0.043118827 -0.004266686
-0.019247573 -0.00756115 -0.043811195 0.032712527 0.02154215 0.0019616704 -0.025219336 0.016944636
0.0047110487 0.00017983165 -0.0011652098 -0.00038713933 0.072695 -0.043865494 -0.028208606 0.058626663
0.04853687 0.0069839447 -0.014628349 -0.0066046445 0.052652314 0.078887135 -0.031056019 0.017723013
-0.040235728 -0.00964405 -0.025159143 -0.040122252 -0.016654061 0.0129493065 -0.01856941 0.07230382
-0.011151712 0.05064394 -0.002057861 -0.032578833 0.0018862312 -0.030418102 -0.026890416 -0.014361463
-0.042665914 -0.004086623 0.0040916614 0.037647754 0.02209813 0.036713913 -0.01729653 0.016491221
-0.03939753 0.10474278 0.010659248 -0.03038562 0.010566277 -0.032738224 0.031978823 -0.0245483
0.01594936 -0.0051926607 -0.003401739 0.036973625 -0.0027681487 -0.010022319 -0.014804142 0.00498653
-0.07272741 0.027534733 0.058575958 -0.0021221095 0.046936132 0.017710814 -0.03416653 0.012527475
-0.004778113 0.030114776 -0.012734779 -0.036249466 0.026323974 0.032817803 -0.019551665 0.102970965
0.09300275 0.07949489 0.026145196 -0.018219821 -0.020063195 0.006762525 -0.043705247 0.08183925
-0.014165061 -0.014508544 0.00035057624 -0.066831976 -0.02237127 0.075553045 -0.002521793 0.013966116
-0.018214576 -0.07067667 0.0009026714 0.030829888 0.012617706 0.016219351 -0.035286203 0.013415481
0.0019545082 0.050979465 0.034296706 -0.015876817 -0.0069679506 -0.045919977 -0.017287865 -0.033874255
-0.0039535556 -0.0051781097 -0.050064176 0.0021930109 0.06599276 0.09612179 -0.01981686 -0.028187936
-0.046011455 0.013328398 -0.020716358 -0.012493819 -0.014415633 0.021799386 -0.018269055 -0.024581375
00000000: f2ab 68bd 511b 293d f0ae 113d 2635 ac3b
00000010: c872 023d f8f1 a4bc c537 173d 2374 00bd
00000020: c9da 5f3d 4e42 1b3d 4e17 85bc 83c0 2a3d
00000030: 78e7 923c 6882 29bd dfb7 3a3c 8685 79bd
00000040: 72ee 09ba 6d6a aabd 75c6 933d ed4c 9b3c
00000050: 771b 87bd c412 c9bc 07da 10bd 4260 2abc
00000060: 00a5 333c 6286 dcbb 1e52 473b c620 45bd
00000070: 91ea 4d3d ea1e d5bc 1ef5 b0bc 9a06 f13b
00000080: bcd6 18bc 2690 823c dde1 8dbd 4a09 ad3d
00000090: 18c6 5fbb 9ed8 bbbc 1ea5 bbbc 5747 e0ba
000000a0: 64b6 903b dfbb 943c 1872 7eba 9573 f63b
000000b0: 2182 703d 56a3 5cbc be7a 38bc e3e1 cdbc
000000c0: 0616 533d 6ec9 ddbc f448 febb 5771 e2bb
000000d0: e2bb b13c f040 403d 48c2 d9bc b426 7d3b
000000e0: c810 1f3c 72db 353c 13e8 8bbb feee d43c
000000f0: 92fb 5e3d d840 0e3d 6a69 74b9 c8b6 d73d
00000100: c078 113c a189 063d a021 dc3c eae3 9dbb
00000110: 2a01 f4bc 549b 193e 97fd 46bc 84da de3c
00000120: 7a44 e83b f979 d33b ec8b d73b 9774 733c
00000130: b498 2cbd 7eb6 f23d d6d8 82bc 9c02 88bc
00000140: c80d 683c d0f8 833d 3a53 c53c af2a 9b3c
00000150: d817 143d d84e a2bd e2ef 7a3d a025 22bd
00000160: 7c1b 393d aa8c 9b3c c20d 853d acf9 24bc
00000170: 1e38 feba 0e33 d13c 6daf 003d 7a99 9e3c
00000180: 108f c6bd 4471 da3c 9a37 773d 5ff0 da3c
00000190: 5064 793d 56b5 c13c 2ae8 c33b 9cf9 703c
000001a0: 9cdd f03c ea7c 913c b264 71bc c402 d73c
000001b0: bc73 7b3d 1749 013d c89b f1bc 96e8 d4bc
000001c0: 9196 f53d c44c edbc b4af 263d 620c ffbc
000001d0: 777f f0bc dfc6 2dbc feaf 35bb 8859 b63b
000001e0: 0aa4 4a3c 8c41 f7bb 20ca 733c 72d7 0abe
000001f0: 78ef 363c 5c78 423d 5e9d 30bd 8ecf 8bbb
00000200: 16ad 9dbc 86c3 f7bb 5e73 33bd 92fd 053d
00000210: 2a79 b03c 5e8f 003b c898 cebc 7acf 8a3c
00000220: 245f 9a3b 3191 3c39 f4b9 98ba f6f8 cab9
00000230: 1ee1 943d 4eac 33bd bc15 e7bc 8322 703d
00000240: 99ce 463d 93d9 e43b beab 6fbc c66b d8bb
00000250: f4a9 573d 948f a13d 3169 febc da2f 913c
00000260: 38ce 24bd 1402 1ebc 8c1a cebc 3b57 24bd
00000270: 196e 88bc 5429 543c e01e 98bc 0614 943d
00000280: acb5 36bc 0570 4f3d 2edd 06bb 6271 05bd
00000290: 6b3b f73a 622f f9bc 4a49 dcbc 574c 6bbc
000002a0: 74c2 2ebd 14e9 85bb 5813 863b 8834 1a3d
000002b0: 2307 b53c 5461 163d 74b1 8dbc 9918 873c
000002c0: 4e5f 21bd 6283 d63d 20a4 2e3c 44eb f8bc
000002d0: 2e1e 2d3c 8418 06bd 3afc 023d 8419 c9bc
000002e0: 3ba8 823c 3227 aabb b6ef 5ebb a871 173d
000002f0: d469 35bb a734 24bc 128d 72bc 0c66 a33b
00000300: 1cf2 94bd 8590 e13c 58ed 6f3d 1713 0bbb
00000310: 1a40 403d 4516 913c 34f2 0bbd 0a40 4d3c
00000320: b891 9cbb 43b3 f63c 89a5 50bc 527a 14bd
00000330: 60a5 d73c f66b 063d d02a a0bc 71e2 d23d
00000340: 3a78 be3d 38ce a23d 732e d63c bc41 95bc
00000350: 925b a4bc 2c98 dd3b 4604 33bd 569b a73d
00000360: 9214 68bc 3eb5 6dbc 8ccd b739 34df 88bd
00000370: f443 b7bc 8ebb 9a3d aa44 25bb 23d2 643c
00000380: bc36 95bc eebe 90bd 41a1 6c3a f68e fc3c
00000390: 7fba 4e3c 72de 843c 4488 10bd 9bcc 5b3c
000003a0: 3517 003b d8cf 503d b47a 0c3d 1910 82bc
000003b0: 6853 e4bb 9616 3cbd 489f 8dbc bbbf 0abd
000003c0: d48c 81bb 22ad a9bb 1810 4dbd 9eb8 0f3b
000003d0: 3627 873d 80db c43d f856 a2bc 63ea e6bc
000003e0: 8276 3cbd 5a5f 5a3c 5ab5 a9bc e0b2 4cbc
000003f0: 8c2f 6cbc a094 b23c fca8 95bc e15e c9bc

layer1.bias f4 [32]
0.01845727 0.010551415 -0.015086373 -0.00800487 0.039946314 -0.0059841378 0.025502719 0.03116167
-0.011396802 0.031560574 0.017429646 0.016857592 0.009370411 0.025092173 -0.0017585665 0.0135302115
0.016771127 0.0014509992 -0.01042923 0.019063005 0.002208207 -0.011135459 0.02808631 0.015946286
0.030731618 -0.011581891 0.029488806 0.011918951 0.044214852 0.029575132 0.009058183 0.051603027
00000000: b333 973c d8df 2c3c d62c 77bc dc26 03bc
00000010: bf9e 233d 9616 c4bb 14eb d03c c246 ff3c
00000020: a7b9 3abc a945 013d 9ec8 8e3c ef18 8a3c
00000030: 5a86 193c 1a8e cd3c b37f e6ba d2ad 5d3c
00000040: 9a63 893c 742f be3a 5cdf 2abc 052a 9c3c
00000050: 91b7 103b 8071 36bc 4315 e63c c9a1 823c
00000060: e0c0 fb3c f9c1 3dbc 8292 f13c b447 433c
00000070: a21a 353d 8c47 f23c c668 143c b25d 533d

layernorm1.weight f4 [32]
1.0849819 1.0259796 1.0790372 1.090682 0.9179238 1.0114222 0.99325776 1.0628102
0.9911679 1.0252906 1.0767465 1.0394962 1.0141456 0.95019686 0.9561448 1.0177777
1.0133426 0.9645685 1.0587649 1.011591 0.9335371 1.0723965 1.1009879 1.0383797
0.97804266 0.9869375 1.0070577 1.0112451 1.1295009 0.93800944 1.0527881 1.0268538
00000000: b0e0 8a3f 4d53 833f e41d 8a3f 789b 8b3f
00000010: 0efd 6a3f 4876 813f 2446 7e3f 2a0a 883f
00000020: 2ebd 7d3f b93c 833f d4d2 893f 360e 853f
00000030: 86cf 813f 1a40 733f e8c5 743f 8a46 823f
00000040: 36b5 813f f6ed 763f 9c85 873f d07b 813f
00000050: 4afc 6e3f 4a44 893f 2ced 8c3f a0e9 843f
00000060: 0161 7a3f f0a7 7c3f 44e7 803f 7b70 813f
00000070: 7c93 903f 6321 703f c3c1 863f f26f 833f

layernorm1.bias f4 [32]
0.007196255 0.068216905 0.008834904 0.04020523 -0.08003204 -0.0062864237 0.017698012 0.048799604
-0.012393669 0.02310076 0.011411254 0.02243511 0.017566917 -0.015475331 -0.08807457 0.022658855
0.0043620747 -0.042383373 0.045282617 -0.013006979 -0.05025545 0.08692036 0.015857983 0.06414357
0.0439893 -0.02494379 0.036301598 -0.03625894 0.034635775 -0.01633072 0.025815768 0.024368849
00000000: 90ce eb3b 4eb5 8b3d 46c0 103c 3dae 243d
00000010: d7e7 a3bd 58fe cdbb 6cfb 903c 18e2 473d
00000020: d10e 4bbc ce3d bd3c 45f6 3a3c d6c9 b73c
00000030: 7fe8 8f3c 3e8c 7dbc 7160 b4bd 109f b93c
00000040: bcef 8e3b 309a 2dbd 447a 393d 391b 55bc
00000050: a9d8 4dbd 4d03 b23d 9ae8 813c b45d 833d
00000060: 202e 343d eb56 ccbc fcb0 143d 4184 14bd
00000070: 3ede 0d3d 01c8 85bc 977b d33c 2ea1 c73c

blocks.0.fcn_layer.weight f4 [32, 32]
-0.111152455 -0.14833821 -0.12776232 -0.07820317 0.10146316 -0.09476809 -0.053363353 -0.047148123
-0.06458579 0.06428841 -0.073907465 0.16130278 0.123177424 -0.09001206 0.017365323 0.053339638
-0.05404038 0.037485596 -0.05058242 -0.08854472 -0.028401893 0.013084473 -0.11976662 -0.16986737
-0.02187575 -0.06910494 0.017191913 -0.14087033 0.08359625 0.024391102 0.14965534 0.053320557
-0.22475204 -0.07824257 -0.13600847 -0.21304905 -0.046020452 -0.11417334 0.23017418 -0.095311
0.019482266 -0.12032514 -0.16797905 0.1712808 0.19208482 -0.13503897 -0.088347316 0.09083021
0.01881561 0.016783306 0.0063728467 -0.15042925 -0.15753052 -0.16533938 -0.17154485 -0.0495058
-0.03138012 -0.17016567 -0.0022927318 0.020773586 0.23155016 0.10579411 0.091082886 0.006504458
-0.25395954 -0.16170824 -0.19665755 -0.15359378 -0.111945175 0.014124995 0.18359019 -0.18312776
-0.07362468 0.1279746 -0.1539875 0.12020735 0.14119467 -0.24880826 -0.012347199 -0.052256227
-0.022785641 -0.10078511 -0.10839805 -0.17368026 -0.089142844 -0.016457774 -0.11325572 -0.14165169
-0.12743971 -0.1575601 0.05612539 -0.14360595 0.08077903 -0.16738014 0.0801298 0.16413598
0.15347299 0.1064575 0.049246043 0.05092346 0.038787164 -0.04246588 -0.043415472 0.04488778
0.06300203 -0.092351995 0.007530187 0.053562246 -0.094612926 0.14396554 -0.094184555 -0.042226635
0.058372952 -0.08458373 -0.03465187 -0.048303433 0.004796274 0.042444054 0.09441805 -0.0084858015
-0.0049543087 0.009585244 0.025935251 -0.035622496 -0.044551603 0.057972495 0.15605763 0.114841
0.24423194 0.07287042 0.060032427 0.10994895 -0.104819484 0.07079658 0.022656318 0.013142239
0.03547394 0.11862674 0.24407324 -0.10476011 0.11324677 0.15990546 -0.01346101 -0.03973835
0.10614319 0.0112877255 0.2829866 0.00341408 0.09731996 -0.057449427 0.1585843 -0.010985104
0.089919634 0.05656482 0.026465286 -0.04511503 -0.05895032 0.0049793636 -0.06401673 -0.05279406
0.2229718 0.053522967 0.23890272 0.20383668 -0.015634347 0.2910055 -0.12855405 0.27996522
0.03227151 0.1227201 0.15624206 -0.0076602614 -0.08555381 0.08696389 0.028986048 -0.050198257
0.22545144 -0.11996602 0.1859588 0.020454433 0.062778115 0.23806056 0.24061362 0.18799397
0.19948196 0.22749142 0.08002267 0.12220344 -0.06292692 0.07432971 -0.074214906 -0.1669093
-0.16041383 -0.039729707 -0.16258374 -0.035225183 0.043809514 -0.12838857 -0.061792552 -0.0107905725
0.0010217725 0.13980126 -0.19040999 0.10421869 0.046569154 0.016291134 -0.1600967 0.14965707
-0.15753078 0.099823676 -0.1657831 -0.047068782 -0.068642795 -0.04224821 -0.17308038 -0.1536042
-0.07892203 -0.1282728 -0.04718762 -0.19274586 0.15690628 0.074179105 0.23508091 0.103904895
0.046801776 0.0006551915 0.115566514 0.14924975 -0.037161868 0.18047632 -0.16649756 0.23586383
0.031268932 0.10454217 0.22530384 0.0069876364 -0.1168178 0.08025373 0.13217948 -0.08118916
0.03151285 0.034542516 0.15399578 0.10199061 0.015069548 0.040917076 0.21805081 0.17966056
0.13335966 0.17747262 0.1806148 0.010393912 -0.09903218 0.062147934 -0.0007253644 -0.11897215
00000000: e6a3 e3bd f9e5 17be 20d4 02be fc28 a0bd
00000010: ebcb cf3d c615 c2bd 8893 5abd 641e 41bd
00000020: 8e45 84bd a4a9 833d cc5c 97bd 8e2c 253e
00000030: 7244 fc3d 3e58 b8bd b941 8e3c aa7a 5a3d
00000040: 7259 5dbd 7f8a 193d 832f 4fbd ef56 b5bd
00000050: 16ab e8bc 4260 563c 3448 f5bd b6f1 2dbe
00000060: c634 b3bc e486 8dbd 0ed6 8c3c 5040 10be
00000070: 8334 ab3d d9cf c73c 403f 193e a866 5a3d
00000080: 6625 66be a43d a0bd ce45 0bbe 8829 5abe
00000090: f17f 3cbd b6d3 e9bd c8b2 6b3e 6a32 c3bd
000000a0: 4699 9f3c 076d f6bd b302 2cbe 3c64 2f3e
000000b0: e2b1 443e a847 0abe 70ef b4bd 3005 ba3d
000000c0: 3223 9a3c 257d 893c 50d3 d03b 200a 1abe
000000d0: ae4f 21be ba4e 29be 74a9 2fbe 98c6 4abd
000000e0: 7188 00bd e93f 2ebe a841 16bb 5e2d aa3c
000000f0: 7c1b 6d3e 95aa d83d aa89 ba3d 5923 d53b
00000100: fc06 82be d896 25be 9960 49be b047 1dbe
00000110: 8343 e5bd 866c 673c 11ff 3b3e d885 3bbe
00000120: 89c8 96bd c60b 033e e6ae 1dbe 452f f63d
00000130: 5695 103e 98c7 7ebe e84b 4abc a00a 56bd
00000140: f4a8 babc 6c68 cebd ccff ddbd 3dd9 31be
00000150: 8690 b6bd 74d2 86bc 9df2 e7bd 240d 11be
00000160: 8e7f 02be 6f57 21be bde3 653d 700d 13be
00000170: 7a6f a53d b365 2bbe 181b a43d 4313 283e
00000180: 0628 1d3e 6406 da3d 38b6 493d 1e95 503d
00000190: 4adf 1e3d b4f0 2dbd 6cd4 31bd 40dc 373d
000001a0: 3507 813d 0b23 bdbd c9bf f63b 1664 5b3d
000001b0: 6cc4 c1bd b46b 133e d5e3 c0bd d6f5 2cbd
000001c0: 7a18 6f3d 3c3a adbd 1fef 0dbd d2d9 45bd
000001d0: 102a 9d3b d1d9 2d3d 405e c13d 0808 0bbc
000001e0: c157 a2bb 6d0b 1d3c 2a76 d43c e5e8 11bd
000001f0: be7b 36bd 9174 6d3d 92cd 1f3e c231 eb3d
00000200: f017 7a3e 163d 953d 90e4 753d ea2c e13d
00000210: 99ab d6bd ccfd 903d be99 b93c 8c52 573c
00000220: 1f4d 113d 94f2 f23d 56ee 793e 788c d6bd
00000230: eced e73d 42be 233e 918b 5cbc aec4 22bd
00000240: 9a61 d93d 27f0 383c 9fe3 903e c2be 5f3b
00000250: b04f c73d 1750 6bbd ec63 223e defa 33bc
00000260: c927 b83d 83b0 673d bacd d83c 8aca 38bd
00000270: e475 71bd ee29 a33b 341b 83bd 963e 58bd
00000280: b852 643e e63a 5b3d eaa2 743e 90ba 503e
00000290: 9a13 80bc acfe 943e aca3 03be 9a57 8f3e
000002a0: 222f 043d ad54 fb3d ebfd 1f3e ee02 fbbb
000002b0: d636 afbd 201a b23d 2674 ed3c b09c 4dbd
000002c0: bedc 663e bfb0 f5bd fc6b 3e3e 0e90 a73c
000002d0: d091 803d 26c6 733e 6b63 763e 7e81 403e
000002e0: 0045 4c3e 83f3 683e ede2 a33d cc45 fa3d
000002f0: d4df 80bd 2d3a 983d fcfd 97bd 46ea 2abe
00000300: 8643 24be 9ebb 22bd 5a7c 26be 4848 10bd
00000310: 9b71 333d 4b78 03be 301a 7dbd f1ca 30bc
00000320: ffec 853a 1028 0f3e d6fa 42be 9c70 d53d
00000330: 4cbf 3e3d fc74 853c 64f0 23be b43f 193e
00000340: c04f 21be 5b70 cc3d 0cc3 29be 32cb 40bd
00000350: 9894 8cbd 760c 2dbd fc3b 31be 6b4a 1dbe
00000360: e0a1 a1bd f259 03be ce47 41bd 2c5f 45be
00000370: 0aac 203e 37eb 973d 0db9 703e 17cc d43d
00000380: 38b3 3f3d 28c1 2b3a 23ae ec3d edd4 183e
00000390: 0b37 18bd c9ce 383e 567e 2abe 4a86 713e
000003a0: da13 003d 351a d63d 0db6 663e 8bf8 e43b
000003b0: 2c3e efbd 115c a43d 0f5a 073e 8146 a6bd
000003c0: 9e13 013d 747c 0d3d 12b1 1d3e 74e0 d03d
000003d0: 44e6 763c aa98 273d b648 5f3e f0f8 373e
000003e0: 6f8f 083e 62bb 353e 16f3 383e 3a4b 2a3c
000003f0: 62d1 cabd d58e 7e3d 6226 3eba aca7 f3bd

blocks.0.fcn_layer.bias f4 [32]
-0.010073891 0.05066769 0.11423428 0.19031921 -0.14030969 -0.09767896 -0.046375543 0.11007567
-0.12282185 0.19065936 0.029863738 -0.1088718 -0.034318548 -0.03851801 -0.13024095 0.010133341
0.0016850973 0.03635862 0.020642908 -0.10322146 0.12918442 -0.07736372 0.03633432 0.052143894
0.0028535244 -0.10600978 0.04160907 -0.15125021 0.031644657 -0.006028394 0.14729625 -0.116008304
00000000: f60c 25bc ec88 4f3d aaf3 e93d 0ae3 423e
00000010: 58ad 0fbe e80b c8bd 48f4 3dbd 5a6f e13d
00000020: 068a fbbd 353c 433e cca4 f43c 2ef8 debd
00000030: 9b91 0cbd 10c5 1dbd e25d 05be 5006 263c
00000040: 7cde dc3a c7ec 143d 511b a93c c665 d3bd
00000050: ec48 043e df70 9ebd 4cd3 143d d694 553d
00000060: 3202 3b3b a81b d9bd 466e 2a3d 56e1 1abe
00000070: d49d 013d d689 c5bb d4d4 163e c395 edbd

blocks.0.layer_norm.weight f4 [32]
1.3442793 1.4157901 1.3613757 1.0222569 1.3921263 1.357605 1.4044716 1.2979809
1.0889213 0.9500118 1.3375847 1.4264216 1.5359524 1.2994921 1.3732479 1.2503716
1.3555285 1.4024119 1.3874959 0.86173594 1.3814592 1.370687 1.3734536 1.3429229
1.2947944 1.3637102 1.1456864 1.35304 1.4117186 1.3253305 1.421352 1.3571389
00000000: 5811 ac3f 9c38 b53f 8f41 ae3f 50d9 823f
00000010: 3231 b23f 00c6 ad3f bac5 b33f 3d24 a63f
00000020: c661 8b3f f933 733f fa35 ab3f fc94 b63f
00000030: 179a c43f c255 a63f 96c6 af3f 2d0c a03f
00000040: f581 ad3f 3c82 b33f 7799 b13f ba9a 5c3f
00000050: a8d3 b03f ac72 af3f 54cd af3f e6e4 ab3f
00000060: d3bb a53f 0e8e ae3f daa5 923f 6a30 ad3f
00000070: 32b3 b43f 6ea4 a93f ddee b53f bab6 ad3f

blocks.0.layer_norm.bias f4 [32]
0.28507447 0.3038575 0.29162043 -0.02173462 0.22625896 0.24193606 0.30845296 0.21595216
0.037408937 -0.048942793 0.20993957 0.30473873 0.29953134 0.23558126 0.22589368 0.13950536
0.21782142 0.330598 0.3175696 -0.20313855 0.22070315 0.2279484 0.2177633 0.22419858
0.14890444 0.24416414 0.09927432 0.16037032 0.22940007 0.15421349 0.2516303 0.29595536
00000000: 48f5 913e 3693 9b3e 464f 953e cd0c b2bc
00000010: 6eb0 673e 16be 773e 8ced 9d3e 9022 5d3e
00000020: 1d3a 193d 3d78 48bd 66fa 563e b706 9c3e
00000030: 2c5c 993e 373c 713e ac50 673e 7eda 0e3e
00000040: 940c 5f3e 2444 a93e 7c98 a23e 8d03 50be
00000050: 0200 623e 4e6b 693e 58fd 5e3e 5094 653e
00000060: 687a 183e 2a06 7a3e 5650 cb3d 1e38 243e
00000070: dae7 6a3e 24ea 1d3e b0d5 803e 7687 973e

last_layer.weight f4 [1, 32]
-0.4386888 -0.5630464 -0.5121418 0.1764971 0.34846002 0.46499985 -0.51370883 0.35102528
0.1288444 0.05051469 0.48759526 -0.5324588 0.5951177 0.37202525 0.4228701 0.32832724
0.34784436 -0.45691615 -0.4104501 0.026143067 0.31906497 0.3139174 0.37655497 0.45761907
0.3014775 0.37195504 0.12720525 0.30163342 0.3662889 0.42680597 0.42885035 -0.5230465
00000000: d29b e0be cf23 10bf ba1b 03bf a8bb 343e
00000010: 5a69 b23e 7614 ee3e 6c82 03bf 96b9 b33e
00000020: c9ef 033e 7ee8 4e3d 16a6 f93e 384f 08bf
00000030: a259 183f 187a be3e 6e82 d83e 821a a83e
00000040: a818 b23e eaf0 e9be 8426 d2be fc29 d63c
00000050: 7c5c a33e c8b9 a03e d0cb c03e 0c4d ea3e
00000060: 425b 9a3e e470 be3e 1842 023e b26f 9a3e
00000070: 388a bb3e 5086 da3e 4692 db3e 60e6 05bf
